data/model_v1.pth (torch_old, 199539 bytes, 69 tensors)

w_layers.weight_ih_l0 f4 [40, 300]
0.2310928 0.14356731 -0.06835877 -0.035520203 0.20551948 -0.2522121 -0.41195145 -0.36645392
0.02268064 -0.028295796 0.18633728 -0.30297163 0.0060531246 0.05597262 -0.11974274 -0.019463615
0.17984135 -0.25475198 -0.049271636 0.103876464 -0.33909333 -0.28755525 -0.119759925 -0.079153545
0.17822525 -0.02393219 0.06449893 -0.3646644 0.15913552 -0.13000496 0.0549046 -0.33372667
0.15319903 -0.30969027 0.117987946 -0.04531175 -0.1871715 -0.0060169064 -0.07167934 -0.043164473
-0.40940806 -0.29110715 0.14779887 -0.21535851 0.090895146 0.12630424 -0.30692607 -0.18019241
0.036751658 -0.0064649475 0.09754781 -0.20169535 0.32826015 0.014185273 -0.10093045 0.13874206
-0.5682658 -0.12929891 -0.2236926 -0.35479897 -0.3476104 0.17103168 -0.06967821 0.2717043
0.030291481 -0.020084104 -0.042025726 -0.43565866 -0.038215853 -0.20694824 0.20776278 -0.11283385
0.11598312 0.12113623 -0.3039579 0.091439806 0.03751614 -0.2086518 -0.056311063 -0.105604276
0.051399857 0.2197704 0.25084838 0.21679589 -0.14768428 -0.12498736 0.04991585 0.0847173
0.10144966 0.09185578 -0.022933943 -0.19337182 -0.022795927 -0.49463034 -0.1138022 0.052970257
-0.215477 0.3532046 0.10457804 -0.04774159 -0.10869887 -0.005591942 0.25987586 0.2981438
0.09421038 0.02678879 0.15967414 0.15408984 -0.24702306 0.040416434 -0.17830619 -0.2934655
0.15691648 0.0008349274 0.5007901 0.1605382 -0.015136083 -0.1673969 0.022063136 -0.048104823
0.007909198 -0.08391451 0.28018668 0.28843433 0.22150925 0.19444543 0.35467112 0.08875111
-0.03813354 0.27232447 0.14893179 -0.09288643 -0.2678278 0.3630722 0.02388683 -0.12107277
-0.041549437 -0.26456097 0.11075072 0.25390065 0.18915436 0.13945389 -0.19171946 0.44856688
-0.09159969 0.08473648 0.15822032 -0.12488602 0.12034152 0.024210896 -0.12793322 0.3023949
0.2940826 -0.19023344 -0.1520364 -0.11033372 -0.057554748 0.24239558 0.32441378 -0.026371937
-0.11242932 0.26808208 -0.12841456 0.2566178 0.2758389 0.10694808 -0.08435016 0.0058682133
-0.056383774 0.31076658 0.21331911 0.01567657 0.1537852 0.18237512 -0.2623925 -0.10901161
-0.052426413 -0.15126368 0.24236345 0.19786696 -0.038533956 0.2407657 0.3908405 0.32792413
-0.06533974 -0.14753312 0.27438155 0.32213923 0.49970368 -0.06208655 0.27066907 0.49677175
-0.06268078 0.3339157 -0.07347578 0.09998662 0.09267161 -0.19851343 0.25371596 0.32066262
-0.01367143 0.07887263 -0.055219695 -0.12277843 0.18086345 -0.2601188 -0.3412069 0.11659109
-0.28918958 -0.23751317 -0.16231127 0.17135671 -0.19740838 -0.17894465 -0.037543565 0.06354716
0.124582276 0.398138 0.4526227 0.15156862 -0.30351272 -0.06182696 0.36995608 0.423113
-0.39387268 0.34641394 0.15380691 0.06662741 -0.065680735 0.22584014 -0.2107531 0.13547246
0.45831892 0.038438343 -0.1367146 0.1951707 0.4264705 0.27328894 0.27880615 0.013048025
0.25594056 0.04336524 -0.17316258 -0.030728623 -0.35890803 0.021871228 0.26444045 0.09829926
0.07155579 -0.017750856 0.037177 0.1431203 0.08257575 0.22964753 0.04879459 -0.105185226
00000000: 97a3 6c3e 4f03 133e afff 8bbd a27d 11bd
00000010: b373 523e f221 81be 4deb d2be d99f bbbe
00000020: c0cc b93c 96cc e7bc 33cf 3e3e 191f 9bbe
00000030: 4a59 c63b 8c43 653d af3b f5bd 2972 9fbc
00000040: 5528 383e da6e 82be 0ed1 49bd 2fbd d43d
00000050: a49d adbe 713a 93be b144 f5bd 411b a2bd
00000060: ae80 363e 710d c4bc 0418 843d 4bb5 babe
00000070: 6cf4 223e 0520 05be a5e3 603d 39de aabe
00000080: 35e0 1c3e b98f 9ebe aaa3 f13d d098 39bd
00000090: e3a9 3fbe 7829 c5bb 9ecc 92bd 3bcd 30bd
000000a0: ef9d d1be ff0b 95be 9658 173e f186 5cbe
000000b0: 3c27 ba3d e655 013e 6a25 9dbe 5c84 38be
000000c0: e888 163d e9d7 d3bb 25c7 c73d 3a89 4ebe
000000d0: b711 a83e 5969 683c a0b4 cebd 6612 0e3e
000000e0: de79 11bf ef66 04be ac0f 65be 36a8 b5be
000000f0: fef9 b1be ee22 2f3e 73b3 8ebd d31c 8b3e
00000100: d725 f83c 6b87 a4bc 2b23 2cbd a70e dfbe
00000110: 3a88 1cbd 3dea 53be c4bf 543e 6f15 e7bd
00000120: 8f88 ed3d 4616 f83d 5fa0 9bbe cb44 bb3d
00000130: 86aa 193d d1a8 55be 6ea6 66bd 0e47 d8bd
00000140: a888 523d 7e0b 613e 336f 803e beff 5d3e
00000150: 8c3a 17be 5ff9 ffbd 9074 4c3d 4480 ad3d
00000160: d7c4 cf3d e21e bc3d f7df bbbc 4303 46be
00000170: 86be babc 3040 fdbe 2111 e9bd 57f7 583d
00000180: 01a6 5cbe 3cd7 b43e 032d d63d af8c 43bd
00000190: 839d debd 9c3c b7bb 730e 853e 4ea6 983e
000001a0: 5ff1 c03d 2a74 db3c 9e81 233e bac9 1d3e
000001b0: 9df3 7cbe b48b 253d e695 36be 1c41 96be
000001c0: b7ae 203e 08df 5a3a c833 003f 2064 243e
000001d0: 55fd 77bc 186a 2bbe c0bd b43c 9009 45bd
000001e0: 9595 013c 5fdb abbd a174 8f3e aaad 933e
000001f0: 52d3 623e b41c 473e 7497 b53e 24c3 b53d
00000200: ea31 1cbd 1d6e 8b3e 9381 183e 3e3b bebd
00000210: ba20 89be 99e4 b93e 50ae c33c 00f5 f7bd
00000220: be2f 2abd 8974 87be 46d1 e23d 44ff 813e
00000230: aeb1 413e 00cd 0e3e 1b52 44be 8faa e53e
00000240: 9e98 bbbd 528a ad3d 8204 223e 3ec4 ffbd
00000250: 9d75 f63d ee55 c63c ed00 03be 81d3 9a3e
00000260: ff91 963e 8ecc 42be 6eaf 1bbe a5f6 e1bd
00000270: 87be 6bbd 8c36 783e 9019 a63e f609 d8bc
00000280: 5841 e6bd 0e42 893e 1b7f 03be 6963 833e
00000290: c23a 8d3e 9807 db3d c7bf acbd 244a c03b
000002a0: acf2 66bd cc1c 9f3e 5370 5a3e 266c 803c
000002b0: de79 1d3e 8bc0 3a3e 4f58 86be 7b41 dfbd
000002c0: 14bd 56bd dee4 1abe 202e 783e a39d 4a3e
000002d0: c8d5 1dbd 498b 763e 3f1c c83e ace5 a73e
000002e0: d7d0 85bd ec12 17be bd7b 8c3e 6fef a43e
000002f0: 29d9 ff3e 774e 7ebd 2395 8a3e de58 fe3e
00000300: c85e 80bd 00f7 aa3e 787a 96bd c9c5 cc3d
00000310: 9dca bd3d 1b47 4bbe 0fe7 813e e42d a43e
00000320: 22fe 5fbc f987 a13d 0c2e 62bd 4273 fbbd
00000330: 4534 393e 4b2e 85be acb2 aebe 4fc7 ee3d
00000340: a810 94be a736 73be ed34 26be 2278 2f3e
00000350: 6c25 4abe 443d 37be 48c7 19bd 0325 823d
00000360: fe24 ff3d bed8 cb3e 2abe e73e ce34 1b3e
00000370: 0566 9bbe 443e 7dbd e26a bd3e 44a2 d83e
00000380: aea9 c9be 2b5d b13e 8f7f 1d3e f473 883d
00000390: 9f83 86bd a342 673e a9cf 57be 4bb9 0a3e
000003a0: c7a8 ea3e 8671 1d3d e9fe 0bbe d4da 473e
000003b0: 575a da3e 87ec 8b3e aebf 8e3e 62c7 553c
000003c0: a40a 833e c09f 313d 8851 31be 98ba fbbc
000003d0: cbc2 b7be 4a2b b33c bd64 873e 1f51 c93d
000003e0: d88b 923d 3e6a 91bc e946 183d 218e 123e
000003f0: 7a1d a93d b928 6b3e d6dc 473d 5a6b d7bd

w_layers.weight_hh_l0 f4 [40, 10]
0.25910532 0.22236067 0.14969452 -0.100455336 0.12850131 0.29529986 -0.13736406 0.17513068
0.051794767 0.03896418 -0.29348582 0.08698834 -0.09920084 -0.0024805225 0.060452376 0.058841895
-0.0795689 0.34313053 -0.13911729 -0.12302075 0.1260523 0.08705206 -0.0044011525 0.029937584
-0.10436098 0.0064741485 -0.0072905645 0.06187536 0.07752304 -0.023212753 -0.19020234 0.15811756
-0.039277457 -0.11206691 0.1672756 -0.061356418 0.09268206 0.29771605 -0.1111186 0.096155226
-0.074624285 0.11388321 0.16226359 -0.27363786 -0.22445475 -0.2700078 0.0114805885 -0.08036757
-0.2724179 -0.1017441 -0.12799512 0.22787742 0.2977675 0.24359141 -0.27792528 -0.21496333
-0.04771286 -0.02748493 -0.008578993 -0.21979432 0.09488994 0.22318217 0.24202229 0.1056906
0.25424445 -0.14319247 -0.25535855 -0.33788937 0.22253223 0.1692122 0.09590375 -0.24118178
-0.17173296 0.39557773 0.26143956 0.15530807 0.059220403 0.2995889 -0.1617292 0.32504058
-0.2582671 0.031295665 -0.16472787 0.28518793 0.23639725 0.30588824 0.12747955 -0.114029825
0.18474519 0.1997094 -0.14365421 0.36858913 0.38216168 -0.2814778 -0.0033631087 -0.24636975
-0.31786668 -0.15645307 0.12503362 0.024794392 -0.23414867 -0.10466981 -0.22077249 0.21746644
0.24917282 0.21500428 0.013954478 0.18673363 0.3915275 0.27362448 -0.3314122 0.11256179
-0.092022166 -0.17336267 -0.24817413 -0.23381567 -0.5888317 0.1064537 -0.35987908 -0.35062954
-0.07058794 0.052850775 -0.04803598 0.20414588 -0.22745661 0.12610237 0.120320626 -0.37983525
-0.05010169 -0.4089108 0.14098522 0.19668128 0.14199802 0.16061297 0.2948429 0.07589704
-0.18815458 -0.2564921 -0.41224357 0.13850676 -0.29842848 0.017858446 -0.13533314 0.21911642
0.32910907 0.14534725 0.14403634 0.28990588 0.2215838 0.14453608 0.10841474 -0.29438844
-0.20447038 0.15481617 0.018850282 0.2657875 -0.40195593 0.37990177 0.0527143 0.3559629
-0.08156006 0.07211678 -0.21987565 0.035557322 -0.11416452 -0.035684593 -0.22556946 -0.17356552
0.10426251 -0.010033043 -0.21459678 0.21367966 0.038748834 -0.17779836 0.26440552 0.2773554
0.05105149 0.38596755 -0.27105963 -0.10546981 -0.04898001 0.18477795 -0.50657296 -0.072019294
-0.27511975 0.35813132 0.21095848 -0.3257287 0.12819847 -0.19332206 0.21886069 -0.07602309
-0.19414388 -0.0027382486 -0.014761088 -0.016525447 0.23573315 -0.48818728 -0.19931321 0.14371866
-0.16165751 -0.31424215 0.3569393 -0.1399651 -0.20994446 -0.06925353 -0.046852008 0.13996294
-0.08670844 -0.18012953 0.02395001 0.2786415 0.030864377 0.0116050895 0.2512239 0.017157342
0.093129136 -0.204456 -0.11818415 0.28212273 -0.22373812 0.5379738 -0.016067648 -0.2225579
0.022125814 -0.3211772 0.27393883 0.26834276 -0.088774346 0.35680902 -0.05500925 0.25988248
-0.048376292 -0.29464716 -0.04194523 0.22918977 0.22526045 0.08514544 -0.016947808 0.21989158
0.2370191 0.09516504 -0.046030074 0.25868446 0.24100965 0.5327984 -0.16671103 0.09107992
-0.19063814 0.0039741197 0.2157096 -0.018319722 0.09217469 0.06315715 0.2638114 -0.08543411
00000000: 74a9 843e 84b2 633e 8549 193e 87bb cdbd
00000010: d995 033e 8b31 973e 2aa9 0cbe 7555 333e
00000020: c026 543d e798 1f3d c643 96be f126 b23d
00000030: cf29 cbbd 4390 22bb e99c 773d 3304 713d
00000040: 05f5 a2bd ceae af3e c374 0ebe 4ef2 fbbd
00000050: db13 013e 5a48 b23d 8b37 90bb aa3f f53c
00000060: 36bb d5bd 1825 d43b b0e5 eebb 0471 7d3d
00000070: 66c4 9e3d ac28 bebc 67c4 42be 92e9 213e
00000080: 66e1 20bd 5683 e5bd 4b4a 2b3e de50 7bbd
00000090: 18d0 bd3d 3d6e 983e 2692 e3bd 08ed c43d
000000a0: 9ed4 98bd 9a3b e93d 6d28 263e 431a 8cbe
000000b0: 77d7 65be 763e 8abe 1419 3c3c c197 a4bd
000000c0: 5c7a 8bbe 365f d0bd 2711 03be b358 693e
000000d0: fb74 983e 0770 793e 394c 8ebe 591f 5cbe
000000e0: 8f6e 43bd 1328 e1bc e88e 0cbc c311 61be
000000f0: a855 c23d de89 643e b1d4 773e 5074 d83d
00000100: 542c 823e 0ca1 12be 5bbe 82be d6ff acbe
00000110: 7ddf 633e f745 2d3e 2f69 c43d 5bf8 76be
00000120: c4da 2fbe 2a89 ca3e 68db 853e 1409 1f3e
00000130: 1891 723d b763 993e 579c 25be b86b a63e
00000140: 963b 84be e22f 003d 6cae 28be 2704 923e
00000150: 1f12 723e 629d 9c3e 008a 023e 7888 e9bd
00000160: d82d 3d3e 9f80 4c3e 171a 13be b7b7 bc3e
00000170: b2aa c33e dc1d 90be 9a67 5cbb 5a48 7cbe
00000180: 6cbf a2be 3c35 20be d008 003e 9c1d cb3c
00000190: abc4 6fbe 205d d6bd 2f12 62be 86af 5e3e
000001a0: 2927 7f3e 152a 5c3e 53a1 643c 1a37 3f3e
000001b0: 4b76 c83e 8218 8c3e dcae a9be cc86 e63d
000001c0: 1e76 bcbd fc85 31be 5c21 7ebe 606d 6fbe
000001d0: adbd 16bf 6604 da3d 1242 b8be b785 b3be
000001e0: 6990 90bd 0e7a 583d 60c1 44bd 9e0b 513e
000001f0: 63ea 68be fb20 013e a96a f63d c479 c2be
00000200: 6e37 4dbd c25c d1be 6e5e 103e d166 493e
00000210: ee67 113e ba77 243e a6f5 963e e86f 9b3d
00000220: 98ab 40be ef52 83be 9711 d3be b7d4 0d3e
00000230: 9ecb 98be e04b 923c c594 0abe 0e60 603e
00000240: fc80 a83e e9d5 143e 437e 133e 8b6e 943e
00000250: dde6 623e 4401 143e 8c08 de3d 15ba 96be
00000260: af60 51be 2188 1e3e e86b 9a3c 4d15 883e
00000270: 2bcd cdbe 7c82 c23e f3ea 573d c540 b63e
00000280: f608 a7bd f6b1 933d 1527 61be 8ea4 113d
00000290: 16cf e9bd 022a 12bd aefb 66be 29bb 31be
000002a0: 9587 d53d a261 24bc 42bf 5bbe d7ce 5a3e
000002b0: 19b7 1e3d c610 36be 2960 873e 8701 8e3e
000002c0: 5e1b 513d 8a9d c53e 54c8 8abe 8e00 d8bd
000002d0: 439f 48bd 6e36 3d3e c4ae 01bf da7e 93bd
000002e0: 7fdc 8cbe fd5c b73e 8005 583e eac5 a6be
000002f0: 7646 033e 38f6 45be 041d 603e feb1 9bbd
00000300: a7cd 46be 3074 33bb 7ed8 71bc 6060 87bc
00000310: 0864 713e aff3 f9be c318 4cbe fc2a 133e
00000320: 8c89 25be 59e4 a0be bfc0 b63e 0353 0fbe
00000330: aefb 56be cbd4 8dbd e4e7 3fbd 7252 0f3e
00000340: 3294 b1bd e073 38be d032 c43c 19aa 8e3e
00000350: 4ad7 fc3c 4623 3e3c 6ba0 803e 8e8d 8c3c
00000360: 7dba be3d ea5c 51be 880a f2bd 6472 903e
00000370: 9b1b 65be a7b8 093f 4da0 83bc 38e6 63be
00000380: 3241 b53c 5771 a4be b641 8c3e 3964 893e
00000390: 53cf b5bd acaf b63e 6151 61bd 510f 853e
000003a0: 3826 46bd fedb 96be c3ce 2bbd b9b0 6a3e
000003b0: adaa 663e bc60 ae3d 21d6 8abc 422b 613e
000003c0: 23b5 723e e3e5 c23d 088a 3cbd 4a72 843e
000003d0: 3ccb 763e 7a65 083f 4cb6 2abe 1c88 ba3d
000003e0: a536 43be 5539 823b fae2 5c3e 3e13 96bc
000003f0: 15c6 bc3d 8958 813d 4a12 873e 14f8 aebd

w_layers.bias_ih_l0 f4 [40]
0.08949332 -0.30937836 0.36116186 0.18649487 0.028441306 0.008858676 0.23478048 0.27245295
0.35527495 0.21475928 -0.027978836 -0.1792781 -0.53963304 0.0774378 -0.008802902 0.0069572018
0.014702516 0.13002661 -0.012050409 -0.2709863 0.12557803 0.017228443 -0.081760414 0.20539396
0.111811034 -0.11197292 0.1369149 0.25182533 -0.27877232 0.120442696 0.19887732 -0.09594364
-0.25209418 -0.180008 -0.14547554 0.08138614 -0.13975996 -0.1006026 0.24705972 0.4349779
00000000: 4648 b73d d766 9ebe 35ea b83e 83f8 3e3e
00000010: befd e83c fb23 113c 4b6a 703e f47e 8b3e
00000020: 99e6 b53e dbe9 5b3e df33 e5bc ae94 37be
00000030: 6425 0abf b697 9e3d 0c3a 10bc 3df9 e33b
00000040: d2e2 703c b225 053e 146f 45bc b7be 8abe
00000050: 8797 003e aa22 8d3c 0172 a7bd cb52 523e
00000060: 2ffd e43d 0f52 e5bd 6b33 0c3e 40ef 803e
00000070: 3fbb 8ebe a9aa f63d 7fa6 4b3e 197e c4bd
00000080: 7d12 81be 0454 38be 8af7 14be c7ad a63d
00000090: 3c1d 0fbe bc08 cebd 39fd 7c3e 6cb5 de3e

w_layers.bias_hh_l0 f4 [40]
0.35602918 0.20478028 0.09748632 0.28692186 -0.18302609 0.04522897 -0.1344163 0.037685487
0.13634674 0.10595408 0.2483754 0.14984483 -0.3986497 -0.19675303 0.4273095 0.17841563
0.19100787 -0.32522786 -0.2743046 -0.19895959 -0.14445996 0.27544785 0.1641472 -0.21681942
0.29667604 0.009377746 -0.22820927 -0.18558627 -0.16986318 0.49181947 0.15084901 0.22489016
0.14061351 0.15330428 0.19635217 -0.021775652 0.16739957 -0.03268995 0.06764023 0.042059317
00000000: 7549 b63e ecb1 513e e8a6 c73d 6ce7 923e
00000010: 316b 3bbe 0342 393d 6da4 09be 195c 1a3d
00000020: 7b9e 0b3e 74fe d83d 1f56 7e3e ec70 193e
00000030: d01b ccbe a079 49be 50c8 da3e 96b2 363e
00000040: 9197 433e 4484 a6be a771 8cbe 10bc 4bbe
00000050: 50ed 13be 8007 8d3e 3416 283e e905 5ebe
00000060: ece5 973e 1ea5 193c b1af 69be 540a 3ebe
00000070: 9df0 2dbe c3cf fb3e 2a78 1a3e 9b49 663e
00000080: fdfc 0f3e ccfb 1c3e 8b10 493e da62 b2bc
00000090: cb6a 2b3e e6e5 05bd f686 8a3d 6446 2c3d

w_layers.weight_ih_l1 f4 [40, 10]
0.06305594 0.16707578 0.43704543 0.21958382 0.10485477 -0.16633703 0.14001694 0.0033699246
-0.24269271 0.4506823 0.025158133 0.42083213 0.6860873 0.109685495 -0.006388737 -0.06041985
0.3318668 0.5197099 0.36821553 0.21305522 0.14298424 0.04441203 -0.45592532 0.41834748
-0.17587328 -0.36511755 -0.035182446 -0.27750653 -0.08753918 -0.12990613 0.12409351 -0.021093335
0.31029728 0.1747821 0.16286767 0.10159313 0.39354256 0.20242253 0.08929812 -0.5311561
0.17086183 -0.11379419 0.7804427 -0.20950583 0.27475983 -0.053170294 -0.13853464 0.89026135
-0.048527025 -0.52405745 0.10412055 0.12776811 0.16308756 0.012718741 -0.06662151 -0.04004397
-0.3112145 0.5317463 0.25532666 -0.4513345 0.09791889 -0.10561923 -0.054390132 -0.03965848
-0.25982028 -0.3515786 -0.07705932 0.21588805 0.13146295 -0.2625407 -0.3022473 0.049261134
0.19480579 -0.0676012 0.2791478 0.19693865 -0.38690788 0.2699896 0.40584275 -0.3230712
-0.0840483 0.2988912 -0.12219656 0.23898235 0.2362645 -0.1699846 0.17071095 0.055517297
-0.06497681 0.0091985855 -0.02067465 0.49785873 0.8323328 -0.27569064 -0.12009385 0.22545512
0.09139222 0.61587304 0.35733315 -0.5461452 -0.27081448 -0.09638354 -0.19393148 0.20955572
0.109684914 0.059245568 -0.19662623 -0.51262546 0.09243609 0.69891775 -0.17345425 0.13374467
0.0017777239 0.07391214 0.1130819 -0.04561667 0.3861436 0.27857822 0.23806077 0.20198081
0.041397106 -0.056191616 -0.40465862 0.04101415 -0.10813112 -0.29564884 -0.3128971 -0.06407271
-0.29059318 0.19375098 -0.061193116 0.08484245 -0.07160923 -0.21517715 -0.29730555 0.027949655
0.22291522 -0.31131008 -0.14040864 -0.17791429 0.3737734 -0.4706453 0.4383556 -0.28347522
0.073370636 0.29323402 -0.25783324 0.29261756 0.2813773 -0.24880283 0.18145575 0.15091091
0.03291726 0.095302396 0.25701946 0.14849582 0.2347278 0.07746948 0.02670357 -0.27507326
-0.21331683 0.21473381 -0.13143459 0.049380083 0.2267867 -0.13104196 0.22063369 -0.2526195
0.03779211 0.043585714 0.2859808 0.1314807 0.41905865 0.081213236 -0.27215743 -0.20333508
0.29136693 -0.13361588 0.26162568 -0.2013639 0.18682985 -0.25947148 -0.30634186 0.17885022
-0.09266405 -0.14972468 -0.32652473 0.045208767 0.01756432 0.038414422 0.2637659 -0.35054198
-0.022031792 -0.31108934 -0.2403734 0.2380509 -0.14296961 0.14686061 0.2426744 -0.45002133
-0.15678309 -0.029150933 -0.21301131 0.36223218 0.33100048 -0.2154816 -0.05721495 -0.43808964
0.0049137715 0.6309188 0.3721742 -0.4231036 0.13586837 -0.05779407 -0.29367793 0.57790834
0.034368683 0.1490095 0.24670458 -0.85712373 -0.006112064 -0.2661356 0.036094233 -0.24761128
-0.017705742 0.236811 -0.16638735 0.23974657 0.061695058 -0.15586852 -0.19876418 -0.35401583
0.24450497 0.048736107 0.22891098 0.44766378 -0.42662737 -0.12100807 -0.051030166 -0.32629594
0.27228642 -0.058474187 0.54647636 -0.17094019 -0.16549252 0.36426613 0.11131184 0.38462144
0.27434865 -0.8047225 -0.2134498 0.033169586 0.20730184 -0.2886168 -0.25200623 0.40753993
00000000: 7923 813d ea15 2b3e 6bc4 df3e 95da 603e
00000010: 19be d63d 4154 2abe 9a60 0f3e f4d9 5c3b
00000020: 7084 78be d5bf e63e 6e18 ce3c 4f77 d73e
00000030: 6ba3 2f3f caa2 e03d 9c58 d1bb ce7a 77bd
00000040: 72ea a93e b50b 053f bf86 bc3e 262b 5a3e
00000050: 766a 123e 64e9 353d 0b6f e9be a431 d63e
00000060: 2018 34be b0f0 babe 781b 10bd 5615 8ebe
00000070: be47 b3bd 1d06 05be bd24 fe3d eecb acbc
00000080: 49df 9e3e 14fa 323e c8c6 263e 0f10 d03d
00000090: 697e c93e da47 4f3e efe1 b63d d9f9 07bf
000000a0: 67f6 2e3e ee0c e9bd 18cb 473f b288 56be
000000b0: 52ad 8c3e 18c9 59bd 06dc 0dbe 2be8 633f
000000c0: 46c4 46bd a128 06bf 283d d53d a5d5 023e
000000d0: 6d00 273e 4462 503c dc70 88bd 2505 24bd
000000e0: 8257 9fbe 8720 083f 2dba 823e 5115 e7be
000000f0: b389 c83d e54e d8bd 30c8 5ebd ee70 22bd
00000100: 2a07 85be 1c02 b4be 47d1 9dbd c211 5d3e
00000110: 399e 063e bc6b 86be 28c0 9abe 0bc6 493d
00000120: 2b7b 473e 7f72 8abd 76ec 8e3e 49aa 493e
00000130: ca18 c6be 143c 8a3e 9fca cf3e 9769 a5be
00000140: 8421 acbd 4408 993e 3142 fabd cab7 743e
00000150: 52ef 713e 7110 2ebe dace 2e3e 1b66 633d
00000160: 9012 85bd aab5 163c e25d a9bc 57e7 fe3e
00000170: c313 553f 5327 8dbe c4f3 f5bd b5dd 663e
00000180: d82b bb3d dba9 1d3f 5ff4 b63e 2cd0 0bbf
00000190: 32a8 8abe bc64 c5bd f995 46be c695 563e
000001a0: 7ca2 e03d 7bab 723d 6358 49be 6c3b 03bf
000001b0: 224f bd3d 46ec 323f fe9d 31be 5df4 083e
000001c0: 8402 e93a 405f 973d 7c97 e73d 8cd8 3abd
000001d0: 9db4 c53e cea1 8e3e 34c6 733e 0fd4 4e3e
000001e0: 0390 293d 2e29 66bd 6a2f cfbe 74fe 273d
000001f0: d973 ddbd 495f 97be 0c34 a0be 8e38 83bd
00000200: a1c8 94be a866 463e a2a5 7abd e1c1 ad3d
00000210: dca7 92bd 6657 5cbe 6f38 98be adf6 e43c
00000220: e343 643e 0964 9fbe 48c7 0fbe 2a2f 36be
00000230: 3a5f bf3e 6cf8 f0be 2570 e03e aa23 91be
00000240: 5843 963d c522 963e b802 84be f8d1 953e
00000250: af10 903e 2bc6 7ebe 89cf 393e 6488 1a3e
00000260: 40d4 063d e72d c33d 0e98 833e 4a0f 183e
00000270: 7c5c 703e 52a8 9e3d 72c1 da3c 67d6 8cbe
00000280: ba6f 5abe 2ee3 5b3e ca96 06be c542 4a3d
00000290: c63a 683e dd2f 06be cced 613e 5857 81be
000002a0: e6cb 1a3d ef86 323d 136c 923e e0a2 063e
000002b0: db8e d63e 2053 a63d 3858 8bbe 1237 50be
000002c0: 0c2e 953e 9ad2 08be cdf3 853e 5732 4ebe
000002d0: 5350 3f3e 72d9 84be d7d8 9cbe 8324 373e
000002e0: a6c6 bdbd 6d51 19be 402e a7be d42c 393d
000002f0: 0ce3 8f3c 7158 1d3d 530c 873e 3d7a b3be
00000300: 047c b4bc 1a47 9fbe 7224 76be 9dc3 733e
00000310: a066 12be a162 163e a37f 783e 3269 e6be
00000320: bf8b 20be f0cd eebc a31f 5abe 7f76 b93e
00000330: e578 a93e 35a7 5cbe 395a 6abd 494d e0be
00000340: b403 a13b e583 213f 9e8d be3e 09a1 d8be
00000350: 1421 0b3e 7ab9 6cbd f45c 96be cdf1 133f
00000360: 2dc6 0c3d f295 183e 20a0 7c3e 766c 5bbf
00000370: b547 c8bb ed42 88be 8cd7 133d d08d 7dbe
00000380: a20b 91bc 957e 723e 7261 2abe 2080 753e
00000390: f5b3 7c3d ff9b 1fbe d688 4bbe 9041 b5be
000003a0: 835f 7a3e 839f 473d a467 6a3e 3034 e53e
000003b0: e76e dabe 14d3 f7bd 0205 51bd 4310 a7be
000003c0: 2069 8b3e a182 6fbd e0e5 0b3f f20a 2fbe
000003d0: df76 29be 1781 ba3e 76f7 e33d 1aed c43e
000003e0: 6d77 8c3e 4b02 4ebf 9692 5abe d5dc 073d
000003f0: ef46 543e 95c5 93be f606 81be 13a9 d03e

w_layers.weight_hh_l1 f4 [40, 10]
0.3357957 -0.1293852 -0.2194562 0.30026037 -0.04230038 0.12795505 0.16547637 -0.27349985
0.39670348 -0.13325469 -0.007313498 0.023619076 -0.2486643 0.43259382 -0.046387322 0.05518733
-0.33423722 -0.25420132 0.11320451 0.26536384 0.122447915 -0.03958732 0.018802658 -0.22504178
0.051963408 -0.024712667 -0.35758263 0.1541383 0.23707864 0.1784856 0.2234931 0.23840578
-0.13453218 -0.026682347 -0.31944007 0.16458072 -0.057844594 -0.075400755 0.15532573 -0.06854434
0.69552773 0.16215977 -0.27878815 0.30279443 -0.17074351 0.25787243 -0.14056835 -0.41156816
-0.060723137 0.20549008 0.093779065 -0.15902495 -0.015456647 0.2748352 0.3415096 0.38612154
-0.21018465 -0.028753478 0.28969806 -0.108214326 0.10550715 -0.019785497 0.34647727 0.21621734
0.097005025 -0.34822366 0.09552166 -0.0809432 -0.036631167 -0.12964404 -0.021148589 -0.16478333
0.25893068 0.3772405 -0.109200165 -0.19118784 -0.101291694 -0.3381813 -0.100056484 0.30079758
0.111092776 0.188013 -0.067622975 0.28578985 0.09636196 0.16292697 0.016797764 -0.17158298
-0.1100103 -0.206757 0.6354492 0.19576718 0.19601117 0.21696313 0.13830756 0.01779429
-0.23590451 -0.22012644 0.1176664 -0.232105 0.047815748 -0.12538843 0.21329853 0.09465339
0.0024880068 0.08627969 -0.15493563 -0.18608285 0.12902594 -0.1081176 0.19282784 0.15197398
0.13448782 -0.19401874 0.20006852 0.13769303 -0.23592873 -0.10073016 -0.26433098 0.28121248
0.21848758 -0.13102007 0.33362854 0.094073124 -0.23865384 -0.11075581 0.16738504 0.13160805
0.40293163 0.27637967 -0.31552416 -0.33717376 0.23010762 0.1788638 -0.060797356 -0.05921707
0.3502006 0.29104304 -0.29131642 -0.3635507 -0.4169613 0.28359258 0.071356565 0.28005472
-0.0048712045 0.2230362 0.2652655 0.3069075 0.06388551 0.105905786 -0.10427609 -0.08505257
0.26634184 0.26652694 0.13667111 -0.10441977 -0.18567167 -0.20179982 0.09121594 0.29713166
-0.015019242 -0.1430547 0.033854082 0.0048857466 -0.22540294 -0.39233568 0.31037286 0.18177244
0.14005545 -0.27393067 0.06971985 -0.09925659 0.16645205 0.06583602 -0.2210994 0.3027024
-0.108396985 0.18501778 0.10833425 0.26204285 -0.23958541 0.1897531 -0.15276983 0.22722976
0.07058569 -0.3929694 -0.29171446 0.28002834 -0.13575378 -0.024776354 -0.057645738 -0.07571785
-0.015388974 0.014423937 -0.04507991 -0.03965507 -0.13315059 0.31172472 -0.022021823 -0.0235774
-0.27543375 -0.043242685 0.0035452591 0.24447015 0.22550113 0.21034321 -0.019032342 0.009847337
0.2573967 -0.008790437 -0.16835596 -0.08058139 0.28410947 0.1583884 0.112363555 -0.022086728
-0.2833187 -0.0941187 -0.11343437 0.0021181363 0.026545327 -0.05804735 -0.2059822 -0.075282715
-0.31547594 0.045142036 -0.20171656 -0.15062095 -0.11671159 -0.10082979 -0.13689983 0.24988881
0.047090255 0.23251367 0.12684101 0.17483774 -0.13634232 0.19998196 -0.15436842 0.10109015
-0.017437859 0.03950119 -0.102169655 0.12445761 -0.22877291 0.07007583 0.10957129 -0.15994047
0.14427005 -0.04946343 0.27422372 -0.022234067 -0.14281273 0.16442193 0.0016396281 0.39191094
00000000: 6aed ab3e 8e7d 04be 20b9 60be babb 993e
00000010: 2a43 2dbd a606 033e a372 293e 2c08 8cbe
00000020: b81c cb3e eb73 08be 11a6 efbb cb7c c13c
00000030: dba1 7ebe f07c dd3e a200 3ebd 1c0c 623d
00000040: 2421 abbe ad26 82be c4d7 e73d c5dd 873e
00000050: f9c5 fa3d 5026 22bd 0808 9a3c 5a71 66be
00000060: 95d7 543d 3872 cabc 1215 b7be 6ed6 1d3e
00000070: bec4 723e eec4 363e 60db 643e a520 743e
00000080: cec2 09be f094 dabc a68d a3be d987 283e
00000090: 74ee 6cbd b66b 9abd b50d 1f3e fa60 8cbd
000000a0: 1b0e 323f 360d 263e 52bd 8ebe df07 9b3e
000000b0: 63d7 2ebe db07 843e 26f1 0fbe 10b9 d2be
000000c0: d3b8 78bd fe6b 523e 3d0f c03d 70d7 22be
000000d0: e03d 7dbc 33b7 8c3e 59da ae3e b9b1 c53e
000000e0: a53a 57be 6a8c ebbc 4e53 943e 799f ddbd
000000f0: 2214 d83d 3215 a2bc 7865 b13e 1468 5d3e
00000100: 92aa c63d 5f4a b2be dca0 c33d 8cc5 a5bd
00000110: 900a 16bd 68c1 04be ce3f adbc f6bc 28be
00000120: 9092 843e ab25 c13e 56a4 dfbd bfc6 43be
00000130: 0572 cfbd 1926 adbe 6aea ccbd 2402 9a3e
00000140: 9c84 e33d 7b86 403e ea7d 8abd 0c53 923e
00000150: 6b59 c53d 54d6 263e 779b 893c 73b3 2fbe
00000160: 154d e1bd 1bb8 53be ccac 223f 3177 483e
00000170: 27b7 483e 952b 5e3e 7fa0 0d3e 55c5 913c
00000180: f490 71be d368 61be 15fb f03d efac 6dbe
00000190: 72da 433d d365 00be ee6a 5a3e a3d9 c13d
000001a0: d40d 233b 68b3 b03d 72a7 1ebe 818c 3ebe
000001b0: 601f 043e c36c ddbd a974 453e 119f 1b3e
000001c0: 2db7 093e d9ac 46be c3de 4c3e 67ff 0c3e
000001d0: 4d97 71be 9d4b cebd 6456 87be 15fb 8f3e
000001e0: 35bb 5f3e 202a 06be 5cd1 aa3e 69a9 c03d
000001f0: ac61 74be f1d3 e2bd fc66 2b3e 43c4 063e
00000200: 0e4d ce3e a381 8d3e 628c a1be 0aa2 acbe
00000210: 55a1 6b3e 1228 373e a606 79bd 998d 72bd
00000220: 7e4d b33e 9803 953e 6d27 95be 5123 babe
00000230: f47b d5be 0c33 913e 6423 923d 5563 8f3e
00000240: a09e 9fbb 9a63 643e e1d0 873e fb22 9d3e
00000250: 68d6 823d 22e5 d83d b48e d5bd 0b30 aebd
00000260: f55d 883e 3876 883e 83f3 0b3e 08da d5bd
00000270: b720 3ebe 9da4 4ebe 6ccf ba3d a421 983e
00000280: 4413 76bc ee7c 12be 94aa 0a3d 9d18 a03b
00000290: 07d0 66be 39e0 c8be 31e9 9e3e 8e22 3a3e
000002a0: b26a 0f3e a440 8cbe 48c9 8e3d 0a47 cbbd
000002b0: 6872 2a3e 09d5 863d e267 62be cffb 9a3e
000002c0: 3dff ddbd 4d75 3d3e 59de dd3d 7b2a 863e
000002d0: e155 75be a34e 423e b26f 1cbe ebae 683e
000002e0: 3b8f 903d 4933 c9be 995b 95be e05f 8f3e
000002f0: 0a03 0bbe c8f7 cabc f01d 6cbd f611 9bbd
00000300: 0922 7cbc 6052 6c3c b6a5 38bd 5b6d 22bd
00000310: a158 08be 629a 9f3e 1c67 b4bc 6425 c1bc
00000320: a705 8dbe 3e1f 31bd 9457 683b 6256 7a3e
00000330: c5e9 663e 3664 573e b7e9 9bbc ba56 213c
00000340: 80c9 833e c405 10bc 8165 2cbe db07 a5bd
00000350: cc76 913e 9230 223e dd1e e63d 3aef b4bc
00000360: 260f 91be 4ec1 c0bd 4750 e8bd 6ed0 0a3b
00000370: 9675 d93c 0fc3 6dbd ffec 52be d32d 9abd
00000380: 1086 a1be dbe6 383d c98e 4ebe 613c 1abe
00000390: 7c06 efbd d97f cebd 782f 0cbe dae2 7f3e
000003a0: b6e1 403d 1018 6e3e 9ce2 013e aa08 333e
000003b0: 529d 0bbe 12c8 4c3e c112 1ebe 5a08 cf3d
000003c0: d7d9 8ebc 00cc 213d 533e d1bd a2e3 fe3d
000003d0: 7243 6abe eb83 8f3d ea66 e03d 6fc7 23be
000003e0: 87bb 133e 2a9a 4abd 0d67 8c3e 3824 b6bc
000003f0: 803d 12be 395e 283e cae8 d63a 8da8 c83e

w_layers.bias_ih_l1 f4 [40]
0.43787488 0.20868206 -0.26659524 0.16673265 0.2899407 0.3038942 0.0482537 -0.09132564
-0.38491508 0.10880453 -0.14365718 -0.166663 0.10728422 -0.27655587 -0.11785705 0.08443948
-0.14623491 0.23128839 -0.38166037 -0.107890084 0.28746015 0.026753042 -0.3387987 0.13665217
0.22721429 0.23510408 0.23432574 -0.21598376 -0.08449532 -0.030681405 0.28636464 0.3621976
-0.16906972 0.19407381 -0.08128136 0.23564334 0.00933261 0.013377751 0.14733496 0.38173628
00000000: 2331 e03e c0b0 553e 2c7f 88be f7bb 2a3e
00000010: 1c73 943e 0598 9b3e aca5 453d f008 bbbd
00000020: 9713 c5be e9d4 de3d de1a 13be b5a9 2abe
00000030: d4b7 db3d bb98 8dbe 095f f1bd 9bee ac3d
00000040: 9bbe 15be ddd6 6c3e fd68 c3be 7af5 dcbd
00000050: fa2d 933e 3229 db3c 0677 adbe 8cee 0b3e
00000060: ddaa 683e 20bf 703e 16f3 6f3e d92a 5dbe
00000070: e20b adbd 9257 fbbc 639e 923e f771 b93e
00000080: 9d20 2dbe 49bb 463e d776 a6bd 7d4c 713e
00000090: cee7 183c 5b2e 5b3c fade 163e f072 c33e

w_layers.bias_hh_l1 f4 [40]
0.17438461 0.30363828 0.09512053 0.20584963 0.23005608 0.28687274 -0.20061068 -0.02892748
-0.2613996 -0.04835037 0.17876317 -0.22845362 0.023179324 -0.12370883 -0.21572185 -0.16899626
-0.06393693 -0.17642336 -0.13939269 0.037340563 -0.091552995 0.03272659 0.12039667 0.070563845
-0.14247005 0.25351855 -0.16111028 0.026995402 0.17586355 -0.03020132 0.281964 -0.040061895
-0.38197657 0.06333114 0.37748945 0.16399665 0.022115396 0.0872869 -0.058450878 0.38634884
00000000: e191 323e 7a76 9b3e 8dce c23d 3fca 523e
00000010: d293 6b3e fce0 923e e36c 4dbe 53f9 ecbc
00000020: 2bd6 85be 0a0b 46bd b10d 373e bfef 69be
00000030: 91e2 bd3c 0e5b fdbd 30e6 5cbe 5b0d 2dbe
00000040: 5df1 82bd 53a8 34be f5bc 0ebe 6bf2 183d
00000050: 2380 bbbd 510c 063d 8892 f63d c783 903d
00000060: abe3 11be 2fcd 813e 18fa 24be 7625 dd3c
00000070: 9315 343e c268 f7bc 965d 903e f117 24bd
00000080: 6f92 c3be c2b3 813d 4c46 c13e bdee 273e
00000090: 592b b53c 79c3 b23d 306a 6fbd 84cf c53e

w_layers.weight_ih_l2 f4 [40, 10]
0.2214102 -0.14806473 -0.1631967 -0.27587843 -0.32473287 -0.34755528 -0.07618977 0.07349283
-0.16489097 -0.15514538 -0.19970696 0.32309705 -0.28636798 -0.16220789 -0.08538865 -0.111419715
0.014583845 -0.20353623 0.037687026 0.17836645 0.110281505 -0.30672953 -0.34390616 -0.31370375
0.20308577 -0.3639135 -0.09609406 0.18601356 -0.0022412643 0.022559816 0.179531 -0.24437656
-0.22380349 -0.23733065 -0.36190566 -0.20942885 -0.30171648 0.18641107 0.41681054 -0.104787715
-0.026257254 0.057403173 -0.26525736 -0.23094769 0.26768303 0.20606793 0.22222593 0.12835479
-0.086063206 0.10107726 -0.14675114 0.10905676 -0.00968978 0.271614 -0.0074706394 -0.31100267
-0.16428986 0.08546796 0.08527927 0.11549501 0.10208747 -0.3124803 -0.04088208 0.020842755
0.10148743 -0.29569307 -0.22179954 -0.03189549 0.27703783 -0.21739745 0.23833872 -0.2208505
-0.17530097 -0.19104946 0.26615718 0.12195381 -0.13677289 -0.27874663 0.0036111008 0.31589696
-0.08007969 0.31667665 0.34652486 -0.04981082 0.40571177 0.3256335 0.12935829 -0.13374676
-0.24216557 0.08547847 -0.44405386 -0.14680329 0.12766498 0.20640795 0.068237305 0.21434887
0.24200459 -0.18946864 -0.38737774 -0.22919346 0.047879282 -0.33404082 0.07659575 0.042458978
0.020978313 -0.17605732 -0.19416776 0.17328934 -0.23536198 -0.061998386 0.14716205 -0.10910706
0.2516148 -0.07380379 0.021822298 -0.11595062 -0.11922757 -0.041111987 -0.047110733 -0.018805224
0.050205138 -0.15233356 0.041534573 -0.012513315 -0.040362936 0.012415506 -0.25748438 0.07337273
0.34687075 -0.29970148 -0.06943232 -0.08909122 -0.16665865 -0.16385967 -0.17386782 -0.14185357
-0.0014055874 -0.115449026 0.02799366 -0.35583892 -0.12345096 -0.08653481 -0.050412256 -0.26353744
0.15714288 -0.022128489 0.2228582 -0.07881764 -0.10569523 -0.37871444 -0.12708656 -0.2041933
-0.18113776 0.10403163 -0.22585516 0.098751314 -0.2625406 0.21833512 -0.045224443 0.047062106
0.12320985 -0.15723152 0.28969243 -0.08854016 0.014015644 -0.30275345 0.0135222785 0.15695648
0.3785108 -0.30517974 0.4128615 -0.09368324 0.17171898 -0.032413192 -0.3437651 -0.19033737
-0.146779 -0.07885786 -0.11686274 -0.47787622 0.0054240497 0.26084358 0.05335987 0.32542145
0.28982472 0.18014576 -0.31688565 -0.3338983 -0.1492078 0.076958366 -0.057256654 -0.15425906
0.12125827 0.10832828 -0.20677964 0.0016105953 0.4006585 0.096486546 0.16932486 0.27136588
0.13523974 0.21531655 0.042259276 0.1624214 0.36742574 0.11624972 -0.015457493 -0.39320028
0.06360016 0.13604769 -0.0456845 0.10116269 -0.32433864 0.056114715 -0.036065895 0.21937244
0.28485712 -0.18508206 0.15728265 0.164038 -0.15726 -0.11664963 -0.122982286 0.2601339
0.22638583 0.25691533 -0.21645632 -0.14729713 0.19647767 0.2343816 -0.3914257 0.050484713
0.20271464 -0.1257889 0.032375284 -0.11458597 -0.18146469 -0.016935455 0.08183489 0.06364773
-0.5667299 0.024314106 -0.21877016 -0.16749094 0.46471286 0.4326892 -0.28116006 -0.20712277
-0.23496798 0.25500348 0.027988024 -0.23313971 -0.21086103 0.11610434 -0.012116589 -0.10143359
00000000: 5bb9 623e 489e 17be 091d 27be f03f 8dbe
00000010: 6343 a6be c4f2 b1be 6209 9cbd 6983 963d
00000020: 2ed9 28be 6ede 1ebe fb7f 4cbe fa6c a53e
00000030: d39e 92be d319 26be 3fe0 aebd 0530 e4bd
00000040: 14f1 6e3c cd6b 50be b65d 1a3d b2a5 363e
00000050: 45db e13d a70b 9dbe 7814 b0be c79d a0be
00000060: b7f5 4f3e df52 babe f6cc c4bd 577a 3e3e
00000070: 2de2 12bb 5dcf b83c f9d6 373e d93d 7abe
00000080: be2c 65be ce06 73be b34b b9be 8474 56be
00000090: 957a 9abe 8be2 3e3e 3168 d53e f19a d6bd
000000a0: 7419 d7bc 971f 6b3d d0cf 87be 8d7d 6cbe
000000b0: c00d 893e 7903 533e 328f 633e 706f 033e
000000c0: e841 b0bd 9801 cf3d ee45 16be 2759 df3d
000000d0: e2c1 1ebc fd10 8b3e 44cc f4bb be3b 9fbe
000000e0: 9a3b 28be d309 af3d e6a6 ae3d a688 ec3d
000000f0: 3c13 d13d 6bfd 9fbe f873 27bd 6dbe aa3c
00000100: a4d8 cf3d 1565 97be 6b1f 63be d8a4 02bd
00000110: e7d7 8d3e 709d 5ebe 110f 743e a226 62be
00000120: 1982 33be 78a2 43be c145 883e ebc2 f93d
00000130: 310e 0cbe e1b7 8ebe 38a8 6c3b 3fbd a13e
00000140: d200 a4bd 7123 a23e b56b b13e 6e06 4cbd
00000150: 74b9 cf3e 6fb9 a63e 8076 043e e9f4 08be
00000160: 40fa 77be 560f af3d 075b e3be 9a53 16be
00000170: 9cba 023e 9b5c 533e 00c0 8b3d 457e 5b3e
00000180: 0dd0 773e 1104 42be 6056 c6be b1b1 6abe
00000190: 111d 443d 6607 abbe 3cde 9c3d 77e9 2d3d
000001a0: b6da ab3c 5f48 34be ead3 46be c372 313e
000001b0: bb02 71be 05f2 7dbd a6b1 163e 8673 dfbd
000001c0: a8d3 803e 7126 97bd adc4 b23c 8577 edbd
000001d0: 962d f4bd 0b65 28bd 2ff7 40bd 6a0d 9abc
000001e0: e7a3 4d3d 54fd 1bbe 2820 2a3d a604 4dbc
000001f0: 9b53 25bd 686a 4b3c fed4 83be 7144 963d
00000200: 0b99 b13e 7972 99be 8832 8ebd 7575 b6bd
00000210: 91a8 2abe d4ca 27be 680a 32be 1042 11be
00000220: b03b b8ba 8a70 ecbd f652 e53c 8530 b6be
00000230: dbd3 fcbd 2a39 b1bd 157d 4ebd 61ee 86be
00000240: 10ea 203e ce46 b5bc f134 643e 256b a1bd
00000250: be76 d8bd dce6 c1be fb22 02be 0c18 51be
00000260: 2d7c 39be 890e d53d 9346 67be 213e ca3d
00000270: b96b 86be 3e93 5f3e 443d 39bd 32c4 403d
00000280: 7255 fc3d 4d01 21be 9152 943e 8b54 b5bd
00000290: dfa1 653c 8002 9bbe 8c8c 5d3c 33b9 203e
000002a0: 2bcc c13e 8540 9cbe 9562 d33e 00dd bfbd
000002b0: 1ad7 2f3e b2c3 04bd fb01 b0be cde7 42be
000002c0: 3c4d 16be 3b80 a1bd bb55 efbd 31ac f4be
000002d0: 3abc b13b 4a8d 853e e18f 5a3d a49d a63e
000002e0: e863 943e 2178 383e d63e a2be b8f4 aabe
000002f0: eec9 18be 599c 9d3d f485 6abd 16f6 1dbe
00000300: 4256 f83d 38db dd3d 0bbe 53be 9c1a d33a
00000310: 1c23 cd3e bd9a c53d 7f63 2d3e 78f0 8a3e
00000320: 497c 0a3e f17b 5c3e 1018 2d3d cc51 263e
00000330: 3a1f bc3e 5514 ee3d 6d41 7dbc 8c51 c9be
00000340: cd40 823d 1650 0b3e ac1f 3bbd 622e cf3d
00000350: b70f a6be 8bd8 653d d5b9 13bd 2ba3 603e
00000360: cbd8 913e 2786 3dbe b40e 213e 94f9 273e
00000370: c408 21be 00e6 eebd 23de fbbd 4530 853e
00000380: b0d1 673e 688a 833e baa6 5dbe 0fd5 16be
00000390: 7131 493e bb01 703e f368 c8be 0fc9 4e3d
000003a0: 6d94 4f3e cece 00be f29b 043d 0dac eabd
000003b0: e1d1 39be 39bc 8abc 0d99 a73d be59 823d
000003c0: 3615 11bf 602e c73c 4905 60be bf82 2bbe
000003d0: d8ee ed3e 7089 dd3e 36f4 8fbe fe17 54be
000003e0: 729b 70be d18f 823e 2447 e53c 2dbc 6ebe
000003f0: f4eb 57be 1dc8 ed3d a884 46bc 6abc cfbd

w_layers.weight_hh_l2 f4 [40, 10]
0.05069192 -0.2841199 0.0049200524 -0.238395 0.10281283 0.043527126 -0.14360192 -0.19349867
-0.16763444 -0.013962939 0.29739356 0.115127586 0.115116484 -0.16064438 -0.19666143 -0.07704578
0.26640865 0.037042342 -0.21396966 0.15752767 -0.13996664 -0.033701543 -0.071146905 0.37209666
0.048811242 0.059740975 -0.043966066 0.21358876 -0.0813066 0.3606811 -0.18687484 -0.06268039
-0.2290177 0.18972564 0.11496271 -0.19670865 0.26839736 -0.27174106 -0.016302375 0.39936897
-0.01371491 0.18284248 0.18724127 -0.010815763 -0.066518165 0.30645704 0.21035355 -0.0651833
0.32257247 -0.059646834 -0.3574391 0.100777395 -0.082669586 0.083838575 -0.43101126 -0.018931545
-0.23455097 -0.17414644 0.3567215 0.2899037 -0.04402051 -0.18201795 0.0994415 -0.21930405
-0.18756019 0.19006686 -0.10462116 0.14329882 -0.065577544 0.064738646 0.13684262 -0.002616323
-0.37856424 -0.52260125 -0.015453623 0.110946625 0.01881792 0.07592457 -0.29020196 -0.25661314
0.0038107247 -0.08861188 0.083157174 0.086144954 -0.0910944 0.27668428 0.17507172 -0.35798872
0.18009181 0.28085083 -0.24569248 0.06531015 -0.2417818 0.0093304245 -0.17568696 -0.040796086
-0.18832098 0.22428618 0.2059889 -0.11631766 -0.14932263 -0.065610334 -0.0052062334 -0.17146899
0.15780579 0.184553 0.34369004 0.17930016 0.18134314 0.3932266 -0.33287528 0.05076087
0.29050115 -0.10586587 -0.15509422 0.22532722 0.23465148 0.11768523 -0.23627204 0.14696184
0.2686356 0.013198571 -0.016466679 0.21284746 0.31744292 0.32016566 0.32353437 0.089523636
0.3531464 0.00043189485 -0.21775697 -0.32619357 0.023421643 -0.043882456 -0.2444209 0.3111059
-0.014528258 -0.110825896 0.24243163 0.095603175 0.055863995 -0.325571 -0.18511516 0.01588689
-0.06242973 -0.019508474 -0.010242596 -0.051500566 -0.09833079 0.07664809 -0.061476655 0.15271632
-0.16496295 0.24862029 -0.03875253 -0.056200027 0.014020061 0.14801349 0.34621072 -0.12318136
-0.035141375 -0.21039604 -0.009595691 0.23212314 -0.21963651 0.2065632 -0.078954905 -0.015587027
0.19396958 -0.010874839 -0.34877443 -0.15437283 -0.25708935 0.07798834 0.03151664 0.33933577
0.2435762 0.05360434 0.10737148 -0.18766688 -0.2589182 -0.19102329 -0.07662022 0.24872231
0.17572087 -0.32397804 0.049058903 -0.36453238 0.032158412 0.05581212 0.35810563 -0.29131013
-0.025204517 -0.34292167 0.03371409 -0.11023511 -0.22425768 -0.09212394 0.16347547 0.2311724
0.18992145 0.379865 -0.03801028 0.0029490008 0.21969597 -0.08143416 -0.36247897 -0.2880358
0.06641071 -0.1355386 -0.2201764 -0.32082745 -0.08710231 -0.20893796 -0.21618511 0.13550916
0.17300671 0.29374188 0.30427796 0.32133606 0.025895646 0.42560098 0.039873686 -0.32213923
-0.069705546 -0.12834156 -0.24080792 0.2625959 -0.23586671 -0.09490532 -0.09288249 -0.29476753
0.18483448 -0.32036978 -0.0681962 -0.21321067 0.099041894 0.011561643 0.085238494 0.13917822
0.22653422 0.26730764 -0.12905136 0.24905984 -0.1961613 -0.18406886 0.08878479 -0.20888509
-0.12102644 -0.27368572 0.10045862 -0.024769086 0.31266952 0.121129 0.2184281 -0.26661548
00000000: 55a2 4f3d 2a78 91be 6438 a13b d21d 74be
00000010: 888f d23d 8049 323d 620c 13be 8424 46be
00000020: 5da8 2bbe d0c4 64bc f843 983e 03c8 eb3d
00000030: 31c2 eb3d f67f 24be 9d61 49be 2eca 9dbd
00000040: b766 883e b6b9 173d dd1a 5bbe ef4e 213e
00000050: 6a53 0fbe a10a 0abd 78b5 91bd 7483 be3e
00000060: 4cee 473d f4b2 743d c315 34bd 03b7 5a3e
00000070: 1384 a6bd 31ab b83e 1e5c 3fbe 945e 80bd
00000080: 9e83 6abe 7047 423e 9271 eb3d fe6d 49be
00000090: 616b 893e a521 8bbe 8f8c 85bc 177a cc3e
000000a0: 80b4 60bc 0f3b 3b3e 2dbc 3f3e 9934 31bc
000000b0: ad3a 88bd f0e7 9c3e ec66 573e d27e 85bd
000000c0: 3828 a53e 3d50 74bd 4202 b7be 6164 ce3d
000000d0: ac4e a9bd 8fb3 ab3d 82ad dcbe 5416 9bbc
000000e0: 212e 70be 7253 32be 33a4 b63e 426e 943e
000000f0: da4e 34bd ea62 3abe fca7 cb3d 3e91 60be
00000100: c70f 40be e3a0 423e 9e43 d6bd edbc 123e
00000110: 854d 86bd b295 843d 7920 0c3e 9e76 2bbb
00000120: 2cd3 c1be 32c9 05bf 3131 7dbc fc37 e33d
00000130: 0a28 9a3c 577e 9b3d 5a95 94be cc62 83be
00000140: 5abd 793b 257a b5bd 4f4e aa3d c46c b03d
00000150: b38f babd 90a9 8d3e 0046 333e 4c4a b7be
00000160: fd69 383e aecb 8f3e cf96 7bbe 54c1 853d
00000170: a695 77be a3de 183c 48e7 33be cc19 27bd
00000180: 37d7 40be 47ab 653e c1ee 523e f437 eebd
00000190: 08e8 18be b65e 86bd 0d99 aabb 9195 2fbe
000001a0: d797 213e 76fb 3c3e 24f8 af3e 769a 373e
000001b0: 04b2 393e ff54 c93e a16e aabe a1ea 4f3d
000001c0: 91bc 943e 35d0 d8bd 05d1 1ebe 2ebc 663e
000001d0: 7a48 703e f404 f13d 4cf1 71be 2a7d 163e
000001e0: 9b8a 893e d23e 583c 21e5 86bc aff4 593e
000001f0: e187 a23e c1ec a33e 4ca6 a53e 2b58 b73d
00000200: 9bcf b43e f26f e239 affb 5ebe d802 a7be
00000210: bfde bf3c 17be 33bd 7949 7abe 4649 9f3e
00000220: ee07 6ebc b0f8 e2bd ff3f 783e 99cb c33d
00000230: a5d1 643d 3eb1 a6be d48e 3dbe 3925 823c
00000240: 51b6 7fbd 3cd0 9fbc 90d0 27bc 42f2 52bd
00000250: a761 c9bd acf9 9c3d f2ce 7bbd ab61 1c3e
00000260: 0cec 28be 5196 7e3e f9ba 1ebd 0032 66bd
00000270: 66b4 653c d990 173e 8842 b13e 8246 fcbd
00000280: 67f0 0fbd 0f72 57be 3f37 1dbc b0b1 6d3e
00000290: 65e8 60be 4e85 533e 1cb3 a1bd bb60 7fbc
000002a0: f69f 463e 612c 32bc 9092 b2be e913 1ebe
000002b0: 37a1 83be 5ab8 9f3d 9817 013d 6bbd ad3e
000002c0: 0a6c 793e 3990 5b3d 94e5 db3d bf2b 40be
000002d0: ed90 84be 9c9b 43be 10eb 9cbd 10b1 7e3e
000002e0: 2cf0 333e 73e0 a5be fdf1 483d fda3 babe
000002f0: 8ab8 033d 409b 643d 9f59 b73e 9a26 95be
00000300: b479 cebc 6e93 afbe c917 0a3d f2c2 e1bd
00000310: cea3 65be 7aab bcbd 1d66 273e 75b8 6c3e
00000320: c57a 423e aa7d c23e abb0 1bbd 0644 413b
00000330: fbf7 603e f4c6 a6bd d896 b9be 6e79 93be
00000340: 5702 883d a1ca 0abe ec75 61be 7f43 a4be
00000350: b262 b2bd d5f3 55be a15f 5dbe eac2 0a3e
00000360: ac28 313e 5665 963e 52ca 9b3e 2986 a43e
00000370: 1b23 d43c 5fe8 d93e 9752 233d 6fef a4be
00000380: c8c1 8ebd f86b 03be 5a96 76be f872 863e
00000390: 0b87 71be b85d c2bd 2d39 bebd c5eb 96be
000003a0: 4045 3d3e 8207 a4be 73aa 8bbd e653 5abe
000003b0: 7ad6 ca3d 0c6d 3d3c 8591 ae3d bc84 0e3e
000003c0: 96f8 673e 8cdc 883e 0a26 04be 8b09 7f3e
000003d0: 82de 48be 8c7c 3cbe cdd4 b53d f9e5 55be
000003e0: b6dc f7bd 8920 8cbe 40bd cd3d 8ae8 cabc
000003f0: 3816 a03e 7b12 f83d 9eab 5f3e d381 88be

w_layers.bias_ih_l2 f4 [40]
-0.06527123 -0.24170654 0.17818885 -0.12220017 0.021410357 0.021782866 -0.01500249 0.09323977
0.07805338 -0.08541762 -0.102931164 -0.31107673 -0.07071271 -0.32311887 -0.28795186 -0.018100237
0.004474578 -0.22354294 -0.09799787 -0.15041354 0.031121656 0.17095245 -0.21533664 -0.3887015
-0.025359698 -0.20294401 -0.23520625 -0.07787911 -0.43893805 0.055340733 0.07119659 0.0521118
0.17100714 0.1341874 0.047028575 0.05784462 0.17169105 0.0558194 0.04505298 -0.13331307
00000000: ecac 85bd eb81 77be 2377 363e 1544 fabd
00000010: c664 af3c fb71 b23c 01cd 75bc 7ef4 be3d
00000020: 73da 9f3d 6fef aebd 93cd d2bd 7345 9fbe
00000030: d3d1 90bd d66f a5be 6d6e 93be f346 94bc
00000040: 7b9f 923b 71e8 64be 1bb3 c8bd 0206 1abe
00000050: d8f2 fe3c 290e 2f3e 3581 5cbe e203 c7be
00000060: 24bf cfbc 8ed0 4fbe e8d9 70be 157f 9fbd
00000070: 7dbc e0be f7ac 623d 85cf 913d 2f73 553d
00000080: 7f1c 2f3e 6c68 093e 09a1 403d 7bee 6c3d
00000090: c7cf 2f3e e2a2 643d 7989 383d 3983 08be

w_layers.bias_hh_l2 f4 [40]
-0.071422294 0.15589896 0.16060555 0.16893958 -0.065308996 -0.11177005 0.060148608 0.4164693
0.31447256 -0.024587285 0.049411446 0.1280963 -0.15405743 -0.2920365 -0.31813568 -0.111510694
-0.14745638 0.08235333 0.19098078 0.19884916 -0.23681529 0.0016571758 -0.22847755 0.17710602
-0.097218014 0.010839829 -0.068848684 -0.27337396 -0.116696015 -0.13189368 0.033034615 0.2749209
-0.06066105 0.1258156 0.18983456 0.3301547 -0.11360511 0.21291043 0.21722522 0.05251433
00000000: da45 92bd faa3 1f3e c875 243e 7ffe 2c3e
00000010: b9c0 85bd b2e7 e4bd 635e 763d 773b d53e
00000020: 8c02 a13e 466b c9bc a863 4a3d ad2b 033e
00000030: 3bc1 1dbe cf85 95be aee2 a2be b85f e4bd
00000040: cefe 16be dda8 a83d 7790 433e 1d9f 4b3e
00000050: b57f 72be 9835 d93a 05f6 69be 485b 353e
00000060: 3d1a c7bd 8a99 313c 8a00 8dbd acf7 8bbe
00000070: 52fe eebd 230f 07be 4e4f 073d 6fc2 8c3e
00000080: b977 78bd ced5 003e fe63 423e 090a a93e
00000090: cca9 e8bd 3105 5a3e 4a70 5e3e 4419 573d

w_layers.weight_ih_l3 f4 [40, 10]
-0.20725754 0.32504717 0.07450957 -0.09804951 -0.41867706 0.057076138 -0.19936162 -0.4037803
-0.088646546 -0.07505894 -0.38683128 0.034080897 -0.54505503 -0.2865833 0.042749476 -0.32176447
-0.39161706 -0.15436946 0.035101116 -0.15763544 0.2432704 0.42657802 -0.17175815 0.122024104
-0.28928876 -0.18513294 -0.22570151 -0.001253246 -0.1413084 -0.14648229 0.31971636 0.20133498
0.094921984 -0.15299952 -0.15710391 0.2205746 -0.058492135 0.18170136 -0.14652821 0.29097015
-0.15442961 0.16752666 -0.009780168 0.20286748 0.13987117 0.22893178 0.34859294 -0.21575803
0.36980814 0.40810117 -0.24965182 0.18528953 -0.3417239 -0.09519484 -0.07739848 0.041065294
0.0036867345 -0.1181843 -0.2105653 -0.19834189 0.04855642 0.2065245 0.105867505 0.14538419
-0.033604313 -0.18204047 -0.29972124 -0.20358047 -0.1680982 0.058654107 -0.15553401 0.19137152
-0.23272686 0.06486215 -0.038287494 -0.12562323 0.09349045 -0.29432708 -0.14343305 0.027303813
-0.085752785 -0.33643743 0.10143817 0.0026201718 0.035566866 0.071233466 -0.12687366 -0.35550955
0.2709759 -0.005439092 0.2047688 0.18588044 0.015004009 0.06589564 0.031337358 -0.024288705
0.0018399432 -0.19716628 0.16592339 -0.110227205 -0.16284463 0.14316492 -0.09551869 0.08322886
-0.22509257 -0.0318306 -0.15342887 -0.035866953 -0.013616859 0.31764355 -0.094874255 -0.24095511
-0.19653927 -0.27777183 -0.16579902 0.18265311 -0.28189623 -0.027800415 0.07588598 0.11156568
0.25373027 0.12869602 -0.27013218 0.19857603 0.039511666 -0.17929353 -0.18553954 -0.19898425
-0.3692604 -0.09159927 0.18991868 -0.13596806 -0.07319613 0.23170511 0.20191167 -0.22479995
0.062581934 0.19376324 -0.16484484 -0.036808167 -0.2857906 0.019830089 0.18868053 0.14952047
-0.048584845 -0.09842127 -0.23175737 0.24705966 -0.07378911 0.31678718 -0.083953604 0.13754593
0.12115052 -0.024575539 -0.2559303 -0.24974005 0.10636369 -0.10760315 -0.16467164 -0.13782942
-0.10108058 -0.014944367 -0.14599082 -0.030096704 0.11307723 0.23986273 0.21277854 -0.38584873
0.22192578 0.2553802 0.0034481515 -0.15803553 0.27200487 0.34735796 0.03539269 0.46251464
-0.048342355 0.032292135 0.20300369 -0.033669833 0.18944193 0.022344146 0.042759936 0.15382308
0.14269817 0.18916778 0.08317739 -0.31642345 -0.074564144 0.4913926 -0.0017408621 0.22227533
-0.026469504 0.2051871 -0.28917837 0.33599907 -0.16836981 -0.18496087 -0.20391068 0.123520285
-0.25461468 0.071512036 -0.08855841 -0.057578687 0.1263146 0.23063384 -0.5639415 0.008471273
-0.25190088 0.07665273 0.10109832 0.20398676 -0.043115504 -0.44245338 0.025096536 -0.14305492
-0.12370757 -0.1965265 -0.17324336 -0.023637544 -0.2651493 0.194035 0.25273967 0.16033345
-0.14189379 0.44862792 -0.054724187 0.1521802 0.44041452 0.27825147 0.029258592 -0.17646042
-0.19881837 0.05608426 -0.16826195 0.31762502 0.1383265 0.26469606 0.43564954 0.07811224
-0.25652957 0.1551475 0.035831578 0.2521615 -0.24288742 0.29508466 -0.22587664 0.27806723
0.00015218055 -0.26134914 -0.20244722 -0.4257878 0.09827523 0.2363357 -0.18478973 0.36439183
00000000: 523b 54be 956c a63e 7998 983d 2ece c8bd
00000010: d75c d6be abc8 693d 7425 4cbe 4bbc cebe
00000020: 528c b5bd 80b8 99bd c00e c6be 6998 0b3d
00000030: ba88 0bbf 0cbb 92be 131a 2f3d 50be a4be
00000040: 0882 c8be 0713 1ebe 30c6 0f3d 2f6b 21be
00000050: e01b 793e 6f68 da3e 5ee1 2fbe c6e7 f93d
00000060: a81d 94be 7d93 3dbe 4c1e 67be f543 a4ba
00000070: 26b3 10be 74ff 15be ddb1 a33e c22a 4e3e
00000080: 7566 c23d e8ab 1cbe d9df 20be 4fde 613e
00000090: 7395 6fbd ec0f 3a3e 7e0b 16be 0afa 943e
000000a0: cc22 1ebe 1c8c 2b3e ff3c 20bc 7ebc 4f3e
000000b0: 633a 0f3e 186d 6a3e c67a b23e acef 5cbe
000000c0: 7e57 bd3e a3f2 d03e baa4 7fbe 8abc 3d3e
000000d0: 6ff6 aebe 83f5 c2bd 1883 9ebd 1534 283d
000000e0: 249d 713b 9c0a f2bd 6e9e 57be 231a 4bbe
000000f0: 19e3 463d 297b 533e 10d1 d83d 98df 143e
00000100: ada4 09bd d168 3abe 1075 99be 6677 50be
00000110: ef21 2cbe 4a3f 703d 4f44 1fbe e5f6 433e
00000120: f34f 6ebe 72d6 843d 59d3 1cbd 60a3 00be
00000130: ec77 bf3d 0ab2 96be 1de0 12be 3fac df3c
00000140: 289f afbd 8741 acbe d1be cf3d 30b7 2b3b
00000150: 90ae 113d dae2 913d 2beb 01be 5905 b6be
00000160: 5abd 8a3e 693a b2bb eaae 513e 7157 3e3e
00000170: 60d3 753c 4bf4 863d 9a5b 003d 1bf9 c6bc
00000180: 402a f13a f5e5 49be d2e7 293e cdbe e1bd
00000190: bec0 26be d399 123e 4e9f c3bd e473 aa3d
000001a0: ab7e 66be ce60 02bd 751c 1dbe 3ae9 12bd
000001b0: 3f19 5fbc 2da2 a23e 6f4d c2bd f0bc 76be
000001c0: 9741 49be 1c38 8ebe 38c7 29be 6b09 3b3e
000001d0: b454 90be b2bd e3bc 1c6a 9b3d 8c7c e43d
000001e0: efe8 813e e4c8 033e c44e 8abe 8457 4b3e
000001f0: fcd6 213d b998 37be 14fe 3dbe 87c2 4bbe
00000200: b30f bdbe 6698 bbbd 0b7a 423e 363b 0bbe
00000210: dae7 95bd 1b44 6d3e efc1 4e3e f531 66be
00000220: f52a 803d df69 463e 16cd 28be 29c4 16bd
00000230: 2553 92be b672 a23c 7835 413e e51b 193e
00000240: e700 47bd 1791 c9bd ce51 6dbe 35fd 7c3e
00000250: bf1e 97bd ee31 a23e deef abbd d7d8 0c3e
00000260: c41d f83d a452 c9bc 4c09 83be dbbb 7fbe
00000270: 35d5 d93d 0a5f dcbd af9f 28be 2823 0dbe
00000280: 5603 cfbd 38d9 74bc 9e7e 15be 5d8d f6bc
00000290: 0995 e73d 939e 753e 9ee2 593e f78d c5be
000002a0: 8340 633e 32c1 823e 62fa 613b 11d4 21be
000002b0: 3944 8b3e e7d8 b13e edf7 103d b8ce ec3e
000002c0: a202 46bd c244 043d 33e0 4f3e 61e9 09bd
000002d0: 11fd 413e 120b b73c 0b25 2f3d cc83 1d3e
000002e0: 781f 123e 33b5 413e e858 aa3d 4102 a2be
000002f0: 16b5 98bd d097 fb3e a42d e4ba 259c 633e
00000300: 93d6 d8bc 911c 523e 300f 94be 1208 ac3e
00000310: 2369 2cbe 6266 3dbe f6cd 50be 34f8 fc3d
00000320: db5c 82be e774 923d 1d5e b5bd a1d7 6bbd
00000330: 9d58 013e 472b 6c3e 785e 10bf 18cb 0a3c
00000340: 27f9 80be 1bfc 9c3d a30c cf3d e8e1 503e
00000350: e299 30bd 4089 e2be 4097 cd3c fd7c 12be
00000360: 655a fdbd 3e3e 49be b566 31be 86a3 c1bc
00000370: a6c1 87be 1cb1 463e 1867 813e 742e 243e
00000380: 9b4c 11be 8fb2 e53e 7826 60bd 20d5 1b3e
00000390: 037e e13e fa76 8e3e b7af ef3c 0ab2 34be
000003a0: 0b97 4bbe 9cb8 653d dc4c 2cbe bf9f a23e
000003b0: 76a5 0d3e 3e86 873e 750d df3e 4ff9 9f3d
000003c0: d857 83be fcde 1e3e 22c4 123d 501b 813e
000003d0: 7bb7 78be 5615 973e 354c 67be d45e 8e3e
000003e0: a892 1f39 8ecf 85be 534e 4fbe dc00 dabe
000003f0: 8644 c93d fc01 723e 8539 3dbe 9191 ba3e
