data/model_vn.pth (torch_old, 38842 bytes, 95 tensors)

tcn.network.0.conv1.bias f4 [8]
-0.2149599 -0.3599789 -0.35315967 -0.23657508 -0.3738647 -0.20555583 -0.23202123 -0.063714646
00000000: 731e 5cbe 284f b8be 58d1 b4be bd40 72be
00000010: 326b bfbe 3a7d 52be f996 6dbe d37c 82bd

tcn.network.0.conv1.weight_g f4 [8, 1, 1]
0.53245604 0.39971304 0.39426738 0.7827749 0.7566688 0.55426985 0.4124541 0.33401966
00000000: 0a4f 083f 30a7 cc3e 6add c93e f063 483f
00000010: 0cb5 413f a1e4 0d3f 2f2d d33e a004 ab3e

tcn.network.0.conv1.weight_v f4 [8, 6, 3]
-0.41040763 -0.17159176 -0.16019481 -0.1024364 0.32911667 0.05275956 -0.026953593 0.47557607
-0.21335523 -0.031056195 -0.050263554 -0.1856687 -0.24156937 -0.10000792 0.056139037 -0.33100456
-0.2243857 -0.01980346 -0.06752673 0.3823627 0.12694757 -0.28818035 -0.2150717 -0.042695448
0.06746673 -0.005915698 0.17990915 0.2350147 -0.20108907 -0.45903626 0.10093025 0.17339468
0.18477471 0.31271228 0.32452703 -0.45602933 0.038787004 -0.23701304 -0.09045753 -0.18268692
-0.26772156 -0.27611193 -0.2211554 -0.109609276 -0.042311836 -0.012647519 0.5453312 0.3401754
0.27854764 0.2752846 0.04721334 -0.3590624 -0.25850078 -0.22785842 0.25486118 -0.2445598
0.033378627 -0.33668894 0.4376454 -0.22374322 -0.3929679 0.4191767 -0.23344089 -0.107039325
0.0898745 -0.12639491 0.0846435 0.24133438 0.17492585 0.020107545 -0.24618393 0.051059734
0.0019092116 -0.24735843 0.29264164 0.31646934 -0.4305375 0.305762 0.35260704 -0.34978008
0.019156583 0.039683532 -0.029356385 0.21689011 0.053029582 -0.14190489 -0.09832567 -0.036566444
-0.08985333 -0.11196344 0.3435803 -0.16288632 -0.19638558 0.19073698 -0.15113959 0.046858754
0.051263258 0.86184514 -0.28697625 -0.42257324 -0.28506306 -0.18622907 0.2386143 0.29843703
0.005507782 -0.29630157 -0.2768693 -0.2104483 0.38757434 0.10246637 -0.14174026 -0.06329195
0.06374461 -0.27112088 -0.38837972 -0.09830499 -0.39151907 -0.06591959 -0.1367508 -0.030468019
0.091755964 -0.05108845 0.021737633 -0.23321947 -0.2297321 0.4314261 0.27013654 -0.30349877
-0.30290586 -0.11093396 0.06783624 0.11291002 -0.27870196 0.016314682 0.1840663 -0.027421128
-0.03702381 0.57701534 -0.160848 -0.13475415 0.27372417 0.22993603 -0.054767326 -0.49019298
00000000: f320 d2be c0b5 2fbe 1c0a 24be 2dca d1bd
00000010: fb81 a83e 691a 583d c8cd dcbc b57e f33e
00000020: cb79 5abe 9069 febc 28e1 4dbd f01f 3ebe
00000030: f65d 77be f4d0 ccbd 0cf2 653d 6e79 a9be
00000040: 5dc5 65be de3a a2bc 744b 8abd 0bc5 c33e
00000050: 8bfe 013e 608c 93be c13b 5cbe 6ce1 2ebd
00000060: ff2b 8a3d 79d8 c1bb 1b3a 383e b2a7 703e
00000070: 4bea 4dbe cd06 ebbe 85b4 ce3d 608e 313e
00000080: 9535 3d3e d31b a03e 6828 a63e ad7c e9be
00000090: 1fdf 1e3d 8cb3 72be cc41 b9bd 4812 3bbe
000000a0: cd12 89be 8b5e 8dbe 9076 62be d47a e0bd
000000b0: 2d4f 2dbd 8a37 4fbc d39a 0b3f 782b ae3e
000000c0: cc9d 8e3e 1af2 8c3e c662 413d 07d7 b7be
000000d0: 375a 84be b853 69be 2a7d 823e e26d 7abe
000000e0: 07b8 083d 7e62 acbe 0f13 e03e f11c 65be
000000f0: 1733 c9be 549e d63e 210b 6fbe 6f37 dbbd
00000100: 1f10 b83d ab6d 01be 9259 ad3d 5c20 773e
00000110: c31f 333e 94b8 a43c a417 7cbe 0324 513d
00000120: 833e fa3a 874b 7dbe 20d5 953e 4508 a23e
00000130: 696f dcbe d68c 9c3e e988 b43e 6016 b3be
00000140: 44ee 9c3c 338b 223d cd7c f0bc 7118 5e3e
00000150: 8c35 593d 844f 11be f85e c9bd b2c6 15bd
00000160: 0605 b8bd 174d e5bd c2e9 af3e accb 26be
00000170: 4d19 49be 8e50 433e 56c4 1abe f7ee 3f3d
00000180: 6cf9 513d e2a1 5c3f 8dee 92be 855b d8be
00000190: c9f3 91be d5b2 3ebe 4f57 743e bdcc 983e
000001a0: a07a b43b d7b4 97be d0c1 8dbe c27f 57be
000001b0: 2570 c63e e3d9 d13d 5c24 11be 369f 81bd
000001c0: 898c 823d 5bd0 8abe b5d9 c6be 2054 c9bd
000001d0: 3075 c8be da00 87bd 6708 0cbe 1198 f9bc
000001e0: 8dea bb3d 1f42 51bd 1f13 b23c 16d1 6ebe
000001f0: e43e 6bbe e2e3 dc3e 564f 8a3e 3164 9bbe
00000200: 7a16 9bbe 5831 e3bd baed 8a3d 5e3d e73d
00000210: 06b2 8ebe 5ea6 853c e07b 3c3e 46a2 e0bc
00000220: 47a6 17bd 47b7 133f 57b5 24be fefc 09be
00000230: 9325 8c3e 5a74 6b3e b453 60bd 93fa fabe

tcn.network.0.conv2.bias f4 [8]
-0.06627209 0.012711087 -0.08302035 -0.21419853 -0.2748855 -0.034028575 -0.16091058 0.011471964
00000000: a9b9 87bd 2a42 503c 9306 aabd dc56 5bbe
00000010: cbbd 8cbe 8c61 0bbd bec5 24be e8f4 3b3c

tcn.network.0.conv2.weight_g f4 [8, 1, 1]
0.4959685 0.71506387 0.7178878 0.51904196 0.49426168 0.29908523 0.394671 0.600817
00000000: 95ef fd3e 6d0e 373f 7fc7 373f efdf 043f
00000010: de0f fd3e b321 993e 5112 ca3e 25cf 193f

tcn.network.0.conv2.weight_v f4 [8, 8, 3]
-0.4092195 -0.4281099 0.0634051 -0.29127288 0.112934835 -0.28799883 -0.2898807 -0.124288864
-0.062957704 -0.052864384 0.7110035 -0.4749245 0.1949497 -0.17529684 0.436536 0.15043812
-0.34416786 -0.18771137 -0.06690333 0.030537698 -0.0063478933 0.014199005 0.03820546 -0.055224244
-0.2026447 -0.26068944 0.09296636 0.15874773 0.061040796 -0.26697996 -0.3345734 -0.3050193
-0.2787412 -0.14717063 0.65122813 0.0826511 0.60064685 0.37118623 0.49900305 0.24848208
0.25459287 0.39264938 -0.41459665 -0.14935172 -0.105930775 -0.22166565 0.29313016 -0.017405761
0.10767274 0.3267159 -0.41677174 0.095399424 0.025619924 -0.013913303 -0.41939303 -0.37339988
-0.4104682 -0.08381632 0.2507714 -0.12696575 0.37220263 -0.33495745 0.24048701 -0.3557446
0.108521126 -0.20146479 -0.59814155 0.029126693 -0.001990828 -0.2511461 -0.2977328 -0.20739411
-0.34210443 -0.19676587 0.5063128 -0.081699274 -0.05229892 -0.18620878 0.019338699 -0.07997055
-0.18244588 -0.20674603 0.17067534 0.5684396 0.43120444 0.34125704 -0.225183 -0.027208924
-0.3054438 0.6585004 -0.18363857 -0.18271627 -0.118200116 -0.23988603 0.034040447 -0.111453176
-0.18456048 -0.27669454 -0.326288 -0.11577084 0.386142 0.09145801 0.20714012 -0.1648633
-0.38776627 -0.011949121 0.40911978 -0.2491625 -0.12408251 -0.07818222 -0.11025102 -0.0278468
0.13836142 -0.41541278 0.024722384 0.02596776 0.28411025 0.03909606 -0.09266697 -0.20470172
-0.19467282 0.046405435 -0.5591039 0.064935386 -0.054494612 0.21704872 -0.4601075 -0.01957502
-0.061769325 0.17879494 -0.22499268 0.10471064 0.11738151 0.39034343 -0.15862432 -0.252697
-0.16567925 0.028282596 -0.025853038 -0.07315781 -0.07978465 -0.037045717 -0.048067458 -0.27259696
-0.24834241 0.12629224 -0.31799215 -0.002989612 -0.34701857 -0.35585743 -0.40076274 -0.07016906
-0.424075 -0.5081723 0.124841586 0.43848127 0.7452467 -0.21727031 0.18727073 0.094858654
-0.33562094 -0.27697688 -0.383455 -0.31675854 -0.246445 -0.29679233 -0.044931047 0.089852884
0.21831794 -0.4284304 -0.1439189 0.09951713 -0.14780863 0.15521549 -0.0473898 -0.11241014
-0.011352261 0.43138644 -0.26521084 0.7253481 -0.18130167 0.6243419 -0.041222233 0.03633711
0.31798905 0.20426661 0.29624888 0.09951764 0.15461744 0.039720893 -0.12669325 0.044578217
00000000: 3885 d1be 3931 dbbe 88da 813d b821 95be
00000010: 614a e73d 9574 93be 3e6b 94be 298b febd
00000020: f8ef 80bd 5388 58bd 5304 363f 4e29 f3be
00000030: e5a0 473e 0481 33be a681 df3e 730c 1a3e
00000040: c536 b0be 6937 40be 9d04 89bd 322a fa3c
00000050: fd01 d0bb f2a2 683c 547d 1c3d d132 62bd
00000060: 1882 4fbe 1679 85be 2665 be3d c48e 223e
00000070: ea05 7a3d 99b1 88be 344d abbe 7d2b 9cbe
00000080: 2bb7 8ebe e6b3 16be e3b6 263f fb44 a93d
00000090: fec3 193f 1f0c be3e 547d ff3e 1672 7e3e
000000a0: ff59 823e 5709 c93e 0346 d4be a8ef 18be
000000b0: 3cf2 d8bd 52fc 62be 2815 963e 8796 8ebc
000000c0: 8783 dc3d 4e47 a73e 1b63 d5be c660 c33d
000000d0: e0e0 d13c 9ff4 63bc afba d6be 452e bfbe
000000e0: e328 d2be e4a7 abbd 1c65 803e 4f03 02be
000000f0: 5891 be3e 8b7f abbe 3a42 763e 2824 b6be
00000100: 5340 de3d c94c 4ebe ce1f 19bf 1a9b ee3c
00000110: 8d78 02bb 3996 80be 6f70 98be 1f5f 54be
00000120: 5028 afbe fe7c 49be b79d 013f f351 a7bd
00000130: 6437 56bd 84ad 3ebe 316c 9e3c 9ac7 a3bd
00000140: 18d3 3abe 3bb5 53be 84c5 2e3e 4285 113f
00000150: d4c6 dc3e 3eb9 ae3e 5f96 66be 40e5 debc
00000160: 2163 9cbe 7b93 283f c00b 3cbe f919 3bbe
00000170: e712 f2bd afa4 75be ff6d 0b3d 9041 e4bd
00000180: 6cfd 3cbe e8aa 8dbe 390f a7be 4319 edbd
00000190: 67b4 c53e 564e bb3d 8a1c 543e edd1 28be
000001a0: 4d89 c6be 3fc6 43bc 2678 d13e 7424 7fbe
000001b0: f91e febd 001e a0bd 49cb e1bd f91e e4bc
000001c0: 9eae 0d3e fcb0 d4be 9986 ca3c 57ba d43c
000001d0: e676 913e 3123 203d 2ec8 bdbd 549d 51be
000001e0: 5058 47be a013 3e3d 6f21 0fbf d8fc 843d
000001f0: be35 5fbd 0542 5e3e 3693 ebbe cb5b a0bc
00000200: d501 7dbd 0516 373e 7b64 66be 8872 d63d
00000210: b865 f03d 18db c73e 6a6e 22be 8061 81be
00000220: d2a7 29be e7b0 e73c c0c9 d3bc c3d3 95bd
00000230: 2266 a3bd 40bd 17bd 62e2 44bd d491 8bbe
00000240: 794d 7ebe c152 013e decf a2be 5eed 43bb
00000250: 6bac b1be f232 b6be c630 cdbe ccb4 8fbd
00000260: 5c20 d9be 9417 02bf f2ac ff3d 9e80 e03e
00000270: 7dc8 3e3f 1c7c 5ebe e6c3 3f3e 4145 c23d
00000280: 82d6 abbe eacf 8dbe 3754 c4be 2d2e a2be
00000290: 145c 7cbe 2af5 97be 9e09 38bd ca04 b83d
000002a0: bd8e 5f3e 3b5b dbbe 7a5f 13be a3cf cb3d
000002b0: 255b 17be cff0 1e3e cf1b 42bd 4a37 e6bd
000002c0: d5fe 39bc afde dc3e b7c9 87be 6ab0 393f
000002d0: 25a7 39be dfd4 1f3f a5d8 28bd 39d6 143d
000002e0: 76cf a23e 442b 513e efad 973e e8cf cb3d
000002f0: 0954 1e3e 60b2 223d e0bb 01be a697 363d

tcn.network.0.net.0.bias f4 [8]
-0.2149599 -0.3599789 -0.35315967 -0.23657508 -0.3738647 -0.20555583 -0.23202123 -0.063714646
00000000: 731e 5cbe 284f b8be 58d1 b4be bd40 72be
00000010: 326b bfbe 3a7d 52be f996 6dbe d37c 82bd

tcn.network.0.net.0.weight_g f4 [8, 1, 1]
0.53245604 0.39971304 0.39426738 0.7827749 0.7566688 0.55426985 0.4124541 0.33401966
00000000: 0a4f 083f 30a7 cc3e 6add c93e f063 483f
00000010: 0cb5 413f a1e4 0d3f 2f2d d33e a004 ab3e

tcn.network.0.net.0.weight_v f4 [8, 6, 3]
-0.41040763 -0.17159176 -0.16019481 -0.1024364 0.32911667 0.05275956 -0.026953593 0.47557607
-0.21335523 -0.031056195 -0.050263554 -0.1856687 -0.24156937 -0.10000792 0.056139037 -0.33100456
-0.2243857 -0.01980346 -0.06752673 0.3823627 0.12694757 -0.28818035 -0.2150717 -0.042695448
0.06746673 -0.005915698 0.17990915 0.2350147 -0.20108907 -0.45903626 0.10093025 0.17339468
0.18477471 0.31271228 0.32452703 -0.45602933 0.038787004 -0.23701304 -0.09045753 -0.18268692
-0.26772156 -0.27611193 -0.2211554 -0.109609276 -0.042311836 -0.012647519 0.5453312 0.3401754
0.27854764 0.2752846 0.04721334 -0.3590624 -0.25850078 -0.22785842 0.25486118 -0.2445598
0.033378627 -0.33668894 0.4376454 -0.22374322 -0.3929679 0.4191767 -0.23344089 -0.107039325
0.0898745 -0.12639491 0.0846435 0.24133438 0.17492585 0.020107545 -0.24618393 0.051059734
0.0019092116 -0.24735843 0.29264164 0.31646934 -0.4305375 0.305762 0.35260704 -0.34978008
0.019156583 0.039683532 -0.029356385 0.21689011 0.053029582 -0.14190489 -0.09832567 -0.036566444
-0.08985333 -0.11196344 0.3435803 -0.16288632 -0.19638558 0.19073698 -0.15113959 0.046858754
0.051263258 0.86184514 -0.28697625 -0.42257324 -0.28506306 -0.18622907 0.2386143 0.29843703
0.005507782 -0.29630157 -0.2768693 -0.2104483 0.38757434 0.10246637 -0.14174026 -0.06329195
0.06374461 -0.27112088 -0.38837972 -0.09830499 -0.39151907 -0.06591959 -0.1367508 -0.030468019
0.091755964 -0.05108845 0.021737633 -0.23321947 -0.2297321 0.4314261 0.27013654 -0.30349877
-0.30290586 -0.11093396 0.06783624 0.11291002 -0.27870196 0.016314682 0.1840663 -0.027421128
-0.03702381 0.57701534 -0.160848 -0.13475415 0.27372417 0.22993603 -0.054767326 -0.49019298
00000000: f320 d2be c0b5 2fbe 1c0a 24be 2dca d1bd
00000010: fb81 a83e 691a 583d c8cd dcbc b57e f33e
00000020: cb79 5abe 9069 febc 28e1 4dbd f01f 3ebe
00000030: f65d 77be f4d0 ccbd 0cf2 653d 6e79 a9be
00000040: 5dc5 65be de3a a2bc 744b 8abd 0bc5 c33e
00000050: 8bfe 013e 608c 93be c13b 5cbe 6ce1 2ebd
00000060: ff2b 8a3d 79d8 c1bb 1b3a 383e b2a7 703e
00000070: 4bea 4dbe cd06 ebbe 85b4 ce3d 608e 313e
00000080: 9535 3d3e d31b a03e 6828 a63e ad7c e9be
00000090: 1fdf 1e3d 8cb3 72be cc41 b9bd 4812 3bbe
000000a0: cd12 89be 8b5e 8dbe 9076 62be d47a e0bd
000000b0: 2d4f 2dbd 8a37 4fbc d39a 0b3f 782b ae3e
000000c0: cc9d 8e3e 1af2 8c3e c662 413d 07d7 b7be
000000d0: 375a 84be b853 69be 2a7d 823e e26d 7abe
000000e0: 07b8 083d 7e62 acbe 0f13 e03e f11c 65be
000000f0: 1733 c9be 549e d63e 210b 6fbe 6f37 dbbd
00000100: 1f10 b83d ab6d 01be 9259 ad3d 5c20 773e
00000110: c31f 333e 94b8 a43c a417 7cbe 0324 513d
00000120: 833e fa3a 874b 7dbe 20d5 953e 4508 a23e
00000130: 696f dcbe d68c 9c3e e988 b43e 6016 b3be
00000140: 44ee 9c3c 338b 223d cd7c f0bc 7118 5e3e
00000150: 8c35 593d 844f 11be f85e c9bd b2c6 15bd
00000160: 0605 b8bd 174d e5bd c2e9 af3e accb 26be
00000170: 4d19 49be 8e50 433e 56c4 1abe f7ee 3f3d
00000180: 6cf9 513d e2a1 5c3f 8dee 92be 855b d8be
00000190: c9f3 91be d5b2 3ebe 4f57 743e bdcc 983e
000001a0: a07a b43b d7b4 97be d0c1 8dbe c27f 57be
000001b0: 2570 c63e e3d9 d13d 5c24 11be 369f 81bd
000001c0: 898c 823d 5bd0 8abe b5d9 c6be 2054 c9bd
000001d0: 3075 c8be da00 87bd 6708 0cbe 1198 f9bc
000001e0: 8dea bb3d 1f42 51bd 1f13 b23c 16d1 6ebe
000001f0: e43e 6bbe e2e3 dc3e 564f 8a3e 3164 9bbe
00000200: 7a16 9bbe 5831 e3bd baed 8a3d 5e3d e73d
00000210: 06b2 8ebe 5ea6 853c e07b 3c3e 46a2 e0bc
00000220: 47a6 17bd 47b7 133f 57b5 24be fefc 09be
00000230: 9325 8c3e 5a74 6b3e b453 60bd 93fa fabe

tcn.network.0.net.4.bias f4 [8]
-0.06627209 0.012711087 -0.08302035 -0.21419853 -0.2748855 -0.034028575 -0.16091058 0.011471964
00000000: a9b9 87bd 2a42 503c 9306 aabd dc56 5bbe
00000010: cbbd 8cbe 8c61 0bbd bec5 24be e8f4 3b3c

tcn.network.0.net.4.weight_g f4 [8, 1, 1]
0.4959685 0.71506387 0.7178878 0.51904196 0.49426168 0.29908523 0.394671 0.600817
00000000: 95ef fd3e 6d0e 373f 7fc7 373f efdf 043f
00000010: de0f fd3e b321 993e 5112 ca3e 25cf 193f

tcn.network.0.net.4.weight_v f4 [8, 8, 3]
-0.4092195 -0.4281099 0.0634051 -0.29127288 0.112934835 -0.28799883 -0.2898807 -0.124288864
-0.062957704 -0.052864384 0.7110035 -0.4749245 0.1949497 -0.17529684 0.436536 0.15043812
-0.34416786 -0.18771137 -0.06690333 0.030537698 -0.0063478933 0.014199005 0.03820546 -0.055224244
-0.2026447 -0.26068944 0.09296636 0.15874773 0.061040796 -0.26697996 -0.3345734 -0.3050193
-0.2787412 -0.14717063 0.65122813 0.0826511 0.60064685 0.37118623 0.49900305 0.24848208
0.25459287 0.39264938 -0.41459665 -0.14935172 -0.105930775 -0.22166565 0.29313016 -0.017405761
0.10767274 0.3267159 -0.41677174 0.095399424 0.025619924 -0.013913303 -0.41939303 -0.37339988
-0.4104682 -0.08381632 0.2507714 -0.12696575 0.37220263 -0.33495745 0.24048701 -0.3557446
0.108521126 -0.20146479 -0.59814155 0.029126693 -0.001990828 -0.2511461 -0.2977328 -0.20739411
-0.34210443 -0.19676587 0.5063128 -0.081699274 -0.05229892 -0.18620878 0.019338699 -0.07997055
-0.18244588 -0.20674603 0.17067534 0.5684396 0.43120444 0.34125704 -0.225183 -0.027208924
-0.3054438 0.6585004 -0.18363857 -0.18271627 -0.118200116 -0.23988603 0.034040447 -0.111453176
-0.18456048 -0.27669454 -0.326288 -0.11577084 0.386142 0.09145801 0.20714012 -0.1648633
-0.38776627 -0.011949121 0.40911978 -0.2491625 -0.12408251 -0.07818222 -0.11025102 -0.0278468
0.13836142 -0.41541278 0.024722384 0.02596776 0.28411025 0.03909606 -0.09266697 -0.20470172
-0.19467282 0.046405435 -0.5591039 0.064935386 -0.054494612 0.21704872 -0.4601075 -0.01957502
-0.061769325 0.17879494 -0.22499268 0.10471064 0.11738151 0.39034343 -0.15862432 -0.252697
-0.16567925 0.028282596 -0.025853038 -0.07315781 -0.07978465 -0.037045717 -0.048067458 -0.27259696
-0.24834241 0.12629224 -0.31799215 -0.002989612 -0.34701857 -0.35585743 -0.40076274 -0.07016906
-0.424075 -0.5081723 0.124841586 0.43848127 0.7452467 -0.21727031 0.18727073 0.094858654
-0.33562094 -0.27697688 -0.383455 -0.31675854 -0.246445 -0.29679233 -0.044931047 0.089852884
0.21831794 -0.4284304 -0.1439189 0.09951713 -0.14780863 0.15521549 -0.0473898 -0.11241014
-0.011352261 0.43138644 -0.26521084 0.7253481 -0.18130167 0.6243419 -0.041222233 0.03633711
0.31798905 0.20426661 0.29624888 0.09951764 0.15461744 0.039720893 -0.12669325 0.044578217
00000000: 3885 d1be 3931 dbbe 88da 813d b821 95be
00000010: 614a e73d 9574 93be 3e6b 94be 298b febd
00000020: f8ef 80bd 5388 58bd 5304 363f 4e29 f3be
00000030: e5a0 473e 0481 33be a681 df3e 730c 1a3e
00000040: c536 b0be 6937 40be 9d04 89bd 322a fa3c
00000050: fd01 d0bb f2a2 683c 547d 1c3d d132 62bd
00000060: 1882 4fbe 1679 85be 2665 be3d c48e 223e
00000070: ea05 7a3d 99b1 88be 344d abbe 7d2b 9cbe
00000080: 2bb7 8ebe e6b3 16be e3b6 263f fb44 a93d
00000090: fec3 193f 1f0c be3e 547d ff3e 1672 7e3e
000000a0: ff59 823e 5709 c93e 0346 d4be a8ef 18be
000000b0: 3cf2 d8bd 52fc 62be 2815 963e 8796 8ebc
000000c0: 8783 dc3d 4e47 a73e 1b63 d5be c660 c33d
000000d0: e0e0 d13c 9ff4 63bc afba d6be 452e bfbe
000000e0: e328 d2be e4a7 abbd 1c65 803e 4f03 02be
000000f0: 5891 be3e 8b7f abbe 3a42 763e 2824 b6be
00000100: 5340 de3d c94c 4ebe ce1f 19bf 1a9b ee3c
00000110: 8d78 02bb 3996 80be 6f70 98be 1f5f 54be
00000120: 5028 afbe fe7c 49be b79d 013f f351 a7bd
00000130: 6437 56bd 84ad 3ebe 316c 9e3c 9ac7 a3bd
00000140: 18d3 3abe 3bb5 53be 84c5 2e3e 4285 113f
00000150: d4c6 dc3e 3eb9 ae3e 5f96 66be 40e5 debc
00000160: 2163 9cbe 7b93 283f c00b 3cbe f919 3bbe
00000170: e712 f2bd afa4 75be ff6d 0b3d 9041 e4bd
00000180: 6cfd 3cbe e8aa 8dbe 390f a7be 4319 edbd
00000190: 67b4 c53e 564e bb3d 8a1c 543e edd1 28be
000001a0: 4d89 c6be 3fc6 43bc 2678 d13e 7424 7fbe
000001b0: f91e febd 001e a0bd 49cb e1bd f91e e4bc
000001c0: 9eae 0d3e fcb0 d4be 9986 ca3c 57ba d43c
000001d0: e676 913e 3123 203d 2ec8 bdbd 549d 51be
000001e0: 5058 47be a013 3e3d 6f21 0fbf d8fc 843d
000001f0: be35 5fbd 0542 5e3e 3693 ebbe cb5b a0bc
00000200: d501 7dbd 0516 373e 7b64 66be 8872 d63d
00000210: b865 f03d 18db c73e 6a6e 22be 8061 81be
00000220: d2a7 29be e7b0 e73c c0c9 d3bc c3d3 95bd
00000230: 2266 a3bd 40bd 17bd 62e2 44bd d491 8bbe
00000240: 794d 7ebe c152 013e decf a2be 5eed 43bb
00000250: 6bac b1be f232 b6be c630 cdbe ccb4 8fbd
00000260: 5c20 d9be 9417 02bf f2ac ff3d 9e80 e03e
00000270: 7dc8 3e3f 1c7c 5ebe e6c3 3f3e 4145 c23d
00000280: 82d6 abbe eacf 8dbe 3754 c4be 2d2e a2be
00000290: 145c 7cbe 2af5 97be 9e09 38bd ca04 b83d
000002a0: bd8e 5f3e 3b5b dbbe 7a5f 13be a3cf cb3d
000002b0: 255b 17be cff0 1e3e cf1b 42bd 4a37 e6bd
000002c0: d5fe 39bc afde dc3e b7c9 87be 6ab0 393f
000002d0: 25a7 39be dfd4 1f3f a5d8 28bd 39d6 143d
000002e0: 76cf a23e 442b 513e efad 973e e8cf cb3d
000002f0: 0954 1e3e 60b2 223d e0bb 01be a697 363d

tcn.network.0.downsample.weight f4 [8, 6, 1]
-0.1665269 -0.072681725 -0.38402042 0.120878644 -0.10068467 -0.35013947 -0.22189638 -0.110301204
-0.2963799 0.43554378 -0.081263565 -0.24661529 0.2338996 -0.08737384 0.08586075 -0.11441135
2.3180027 -0.004224961 -0.073741 -0.31040832 -0.43685314 0.10560787 -0.038491413 -0.27002367
0.09321538 -0.2909602 -0.15059328 0.13685085 1.346113 -0.115689315 -0.33249056 -0.3268859
-0.08631524 0.7066716 0.25014934 -0.20135817 -0.12398323 -0.41266087 0.54325724 -0.49882418
0.045656346 0.094724014 0.21405473 0.08092072 0.1249013 0.014192817 0.1799887 -0.05703853
00000000: 0786 2abe 28da 94bd 539e c4be 398f f73d
00000010: c433 cebd 7b45 b3be ce38 63be 99e5 e1bd
00000020: 1bbf 97be 98ff de3e 836d a6bd b888 7cbe
00000030: 6083 6f3e 0ef1 b2bd c3d7 af3d 7f50 eabd
00000040: 285a 1440 8b71 8abb 8505 97bd d7ed 9ebe
00000050: 37ab dfbe f048 d83d 2ca9 1dbd 8b40 8abe
00000060: b5e7 be3d bcf8 94be 2035 1abe a122 0c3e
00000070: 6e4d ac3f 85ee ecbd 343c aabe 975d a7be
00000080: 0bc6 b0bd 6ee8 343f 9313 803e d630 4ebe
00000090: ebea fdbd 4948 d3be e812 0b3f e265 ffbe
000000a0: 2602 3b3d aafe c13d 2a31 5b3e c3b9 a53d
000000b0: 41cc ff3d fd88 683c f54e 383e 3ca1 69bd

tcn.network.0.downsample.bias f4 [8]
-0.6760941 -0.35610187 0.020958615 -0.24185763 0.051689602 -0.44587094 -0.001977061 -0.23501794
00000000: 8114 2dbf fc52 b6be 67b1 ab3c 87a9 77be
00000010: 7ab8 533d 3249 e4be 9491 01bb 8ba8 70be

tcn.network.1.conv1.bias f4 [8]
-0.06766098 -0.4293375 0.112458244 -0.029124705 -0.45793477 -0.024897037 -0.06338248 -0.006250672
00000000: d791 8abd 20d2 dbbe 8250 e63d ef96 eebc
00000010: 6d76 eabe dff4 cbbc acce 81bd 70d2 ccbb

tcn.network.1.conv1.weight_g f4 [8, 1, 1]
0.99444324 0.31412667 0.7568075 0.70295215 0.23034686 0.6407345 0.5464777 1.0127405
00000000: d593 7e3f 36d5 a03e 23be 413f acf4 333f
00000010: 0ce0 6b3e 2d07 243f f6e5 0b3f 7ba1 813f

tcn.network.1.conv1.weight_v f4 [8, 8, 3]
-0.09516153 0.06863467 0.024315419 -0.17381582 -0.25600833 -0.16485578 -0.316365 -0.21745701
-0.084038086 -0.48793694 -0.50922644 0.058193445 -0.110717215 -0.068153836 0.19429947 -0.061810475
-0.0864093 -0.42505783 -0.14453009 -0.21526219 0.6042912 -0.19097573 -0.14304864 -0.032175407
-0.33225974 -0.32774404 0.30637753 -0.3168245 0.04548669 -0.021931048 -0.26037204 -0.038339585
-0.2731673 -0.1177948 -0.28070524 -0.27467567 -0.06512573 0.45863783 -0.31222036 0.020395616
-0.14117555 -0.22685373 0.16233653 -0.23378879 -0.22854985 -0.09373548 -0.36478245 -0.03231593
0.2892048 0.2317147 -0.08089043 0.1944506 -0.112941206 0.08666847 0.31299344 0.28502935
0.14083144 0.1441002 0.03248889 0.22245806 0.039208196 -0.023492228 0.07812128 -0.18178004
-0.08380955 0.48446676 -0.19203015 -0.259592 -0.37019345 -0.047421366 -0.14691643 0.34469762
-0.04340034 0.18234563 -0.03573597 -0.05174492 0.22690633 -0.12596184 0.25267547 0.22753757
0.16245295 0.431359 0.4164381 0.018331911 0.07553568 0.0753199 0.22301683 -0.18783616
0.058525853 -0.22655198 0.027026083 -0.28098047 -0.07709118 0.006208988 0.06302827 -0.03526611
0.23393881 -0.30957654 0.08969895 -0.3441766 -0.30880836 0.1307777 -0.31794742 -0.32445222
-0.40085423 -0.3616756 -0.16359118 -0.39087838 -0.49064913 -0.15358779 -0.086328775 -0.18010233
-0.1343552 -0.041049283 0.093611814 -0.10424622 0.21728863 -0.22353615 -0.049734853 -0.3778589
-0.15929376 -0.16641967 -0.07477882 0.037755165 -0.37539193 -0.015497881 0.023846142 -0.18976563
-0.051616337 -0.3089523 -0.01677675 -0.24386276 -0.2913532 0.020325335 -0.10741575 -0.30037144
0.036677368 -0.22362463 -0.10949174 -0.2727327 -0.042406015 -0.3013002 -0.08244464 -0.050950594
-0.3991125 0.12149449 0.048145864 0.20411249 -0.1672436 -0.2121838 -0.4067354 -0.25587264
0.22221357 -0.2038375 -0.3158715 -0.14906521 -0.01165936 -0.15856671 -0.025410961 0.26819652
-0.16166914 -0.0777589 0.15090732 -0.058665033 0.45142692 -0.19297317 0.003249245 0.14346144
-0.00661444 0.01138294 -0.03505401 0.13364525 -0.19931732 -0.074997604 -0.231419 -0.16156247
-0.13819405 -0.24906808 -0.3375064 -0.4495812 0.21802308 -0.18203859 -0.17913908 0.34601942
-0.11384196 -0.24499163 0.51847416 -0.4863503 0.16854014 -0.07933095 -0.11553416 -0.03395455
00000000: 0ce4 c2bd 5590 8c3d 2131 c73c c6fc 31be
00000010: 8613 83be f4cf 28be 98fa a1be 0dad 5ebe
00000020: 291c acbd dfd2 f9be aa5c 02bf 405c 6e3d
00000030: b5bf e2bd 3d94 8bbd 71f6 463e fb2c 7dbd
00000040: 5cf7 b0bd 2ea1 d9be b2ff 13be b16d 5cbe
00000050: d4b2 1a3f 248f 43be 587b 12be 5cca 03bd
00000060: f31d aabe 11ce a7be 84dd 9c3e d236 a2be
00000070: 4050 3a3d bea8 b3bc 7c4f 85be f809 1dbd
00000080: 96dc 8bbe 663e f1bd 99b8 8fbe 4aa2 8cbe
00000090: a460 85bd 94d2 ea3e 59db 9fbe b514 a73c
000000a0: 5390 10be 584c 68be 8c3b 263e 5466 6fbe
000000b0: f908 6abe 63f8 bfbd c4c4 babe b55d 04bd
000000c0: a712 943e 9e46 6d3e e2a9 a5bd 0f1e 473e
000000d0: b84d e7bd 3d7f b13d ad40 a03e 5eef 913e
000000e0: 1e36 103e 018f 133e 1213 053d 0ccc 633e
000000f0: c698 203d c672 c0bc 0dfe 9f3d 8c24 3abe
00000100: 57a4 abbd 070c f83e 8da3 44be 3ee9 84be
00000110: ff89 bdbe e83c 42bd 4371 16be 357c b03e
00000120: 8ec4 31bd d0b8 3a3e e15f 12bd 7bf2 53bd
00000130: 225a 683e 24fc 00be ae5e 813e 9cff 683e
00000140: 115a 263e 16db dc3e 6037 d53e ce2c 963c
00000150: 73b2 9a3d 5241 9a3d 865e 643e 1f58 40be
00000160: ceb8 6f3d 3efd 67be ce65 dd3c acdc 8fbe
00000170: fbe1 9dbd c474 cb3b f714 813d 3273 10bd
00000180: a88d 6f3e d180 9ebe 15b4 b73d ea37 b0be
00000190: 211c 9ebe 97ea 053e 01ca a2be 9a1e a6be
000001a0: c43c cdbe 8b2d b9be 7284 27be 3621 c8be
000001b0: 5d36 fbbe 1e46 1dbe 24cd b0bd bf6c 38be
000001c0: 6994 09be 4b23 28bd 8db7 bf3d 0b7f d5bd
000001d0: e980 5e3e a9e6 64be c6b6 4bbd b976 c1be
000001e0: e71d 23be eb69 2abe a325 99bd 29a5 1a3d
000001f0: 5f33 c0be d3ea 7dbc fc58 c33c ec51 42be
00000200: a76b 53bd ff2e 9ebe 656f 89bc 29b7 79be
00000210: 3f2c 95be 5181 a63c cafc dbbd 49ca 99be
00000220: 023b 163d dbfd 64be 353d e0bd 9fa3 8bbe
00000230: eeb1 2dbd 0544 9abe bcd8 a8bd 92b1 50bd
00000240: 7958 ccbe 1ad2 f83d 9934 453d dd02 513e
00000250: e841 2bbe b646 59be 9f3f d0be bd01 83be
00000260: f48b 633e c7ba 50be e9b9 a1be 8da4 18be
00000270: e606 3fbc 505f 22be a62a d0bc 0e51 893e
00000280: 988c 25be 0f40 9fbd 7387 1a3e bf4a 70bd
00000290: 6e21 e73e c29a 45be 49f1 543b 8ee7 123e
000002a0: f2bd d8bb 837f 3a3c cb94 0fbd 4dda 083e
000002b0: d719 4cbe 5898 99bd 1af9 6cbe a270 25be
000002c0: be82 0dbe b40b 7fbe a4cd acbe 822f e6be
000002d0: 7141 5f3e 5368 3abe 3c70 37be 7529 b13e
000002e0: f925 e9bd 16df 7abe b9ba 043f e802 f9be
000002f0: c995 2c3e 4478 a2bd 2c9d ecbd ed13 0bbd

tcn.network.1.conv2.bias f4 [8]
-0.22099231 -0.017535677 -0.23475882 -0.18956989 -0.21718344 -0.011728913 -0.19387238 -0.053004645
00000000: cf4b 62be fba6 8fbc 9e64 70be 9c1e 42be
00000010: 5665 5ebe a02a 40bc 7b86 46be 661b 59bd

tcn.network.1.conv2.weight_g f4 [8, 1, 1]
0.49419647 0.637892 0.5326613 0.21084084 0.33812478 0.52721417 0.34525105 0.5169968
00000000: 5207 fd3e e44c 233f 7e5c 083f a9e6 573e
00000010: b11e ad3e 82f7 063f bfc4 b03e e759 043f

tcn.network.1.conv2.weight_v f4 [8, 8, 3]
-0.15147065 0.2383987 -0.033526134 -0.25367916 0.21306959 0.18147829 0.030902127 -0.18868019
-0.06989316 -0.039030284 -0.01596904 -0.33687982 -0.3569359 0.3603156 0.18413714 -0.14836465
-0.29263178 0.22915526 -0.31737676 0.08550257 -0.13076237 0.12460648 -0.35082144 -0.24435228
-0.20483488 0.5297187 0.34976983 -0.09080285 0.10267553 0.016139783 -0.1142007 -0.27573735
-0.060231995 -0.39743295 -0.18973486 -0.22928846 0.08536432 0.041010212 -0.17791708 -0.00503953
-0.0027335754 0.028213533 0.0055745044 0.24563907 0.08258549 -0.07168956 0.42926526 -0.49332243
-0.047734525 -0.16821593 3.7165384e-05 -0.13744219 -0.14356543 -0.2539198 -0.2626763 -0.16815498
-0.12168918 -0.23884949 -0.30646196 -0.24199387 -0.13774118 -0.19812201 -0.19782552 0.049684655
0.14190972 0.15209661 0.22315843 -0.2919789 -0.11863003 -0.28160802 -0.14904025 -0.18765794
0.17350383 0.04735929 -0.06147663 -0.37760273 0.3803072 -0.1249244 0.004774632 -0.04809793
-0.21880059 -0.24952628 -0.23577105 -0.04626058 0.14209405 0.07539504 0.04201178 -0.07707002
0.3162311 -0.38871643 0.15064216 -0.030456396 0.05227257 0.06478702 -0.14163281 0.123956814
-0.048019305 -0.1929223 -0.23238851 -0.27765712 0.31061578 0.34801593 0.13682984 -0.22158158
-0.35020208 -0.3671621 -0.33541265 -0.2606095 -0.29113376 -0.16826063 -0.22637998 -0.19890027
0.08942612 -0.28369159 0.13558082 -0.057464194 -0.32785285 0.23205464 0.16011885 -0.2565052
-0.14787513 -0.2258416 -0.045787398 0.21716388 -0.115989596 -0.19694172 -0.06223059 -0.34820542
-0.062221978 -0.11675374 -0.3273465 -0.13420054 -0.22522548 -0.13525933 -0.008740624 -0.019177288
0.11065523 -0.04099401 -0.13796648 -0.40215167 -0.16637284 -0.19718531 -0.05330842 -0.05265716
-0.22509329 -0.379656 0.072394505 -0.20024233 0.29271108 0.37719047 -0.1226131 -0.4114849
-0.3958009 -0.03858223 -0.27207896 -0.12270328 -0.27181956 -0.40228188 0.24980736 0.13376115
-0.28912717 0.35538846 -0.23329012 -0.32546526 -0.43255126 -0.33506718 -0.004272994 -0.17057341
-0.22726163 0.32144043 0.41439614 -0.30815157 -0.30895352 -0.12641808 -0.37208158 -0.4301234
-0.22446549 -0.079575196 -0.20907192 -0.08821029 -0.3951106 0.25973842 0.043534502 0.03951603
-0.019464942 -0.09039354 -0.23830257 0.34851977 0.20966648 -0.01891179 0.43572545 -0.21863668
00000000: 1f1b 1bbe ca1e 743e b352 09bd 3ce2 81be
00000010: ea2e 5a3e 72d5 393e 7526 fd3c 6135 41be
00000020: 2524 8fbd 38de 1fbd 81d1 82bc 837b acbe
00000030: 4dc0 b6be 497b b83e 728e 3c3e e7ec 17be
00000040: d5d3 95be ada7 6a3e 357f a2be f91b af3d
00000050: 92e6 05be af31 ff3d de9e b3be 7c37 7abe
00000060: 3cc0 51be a59b 073f 0815 b33e d8f6 b9bd
00000070: 8c47 d23d 9437 843c 0ee2 e9bd 722d 8dbe
00000080: d3b5 76bd 557c cbbe db49 42be 98ca 6abe
00000090: 7dd3 ae3d 53fa 273d e52f 36be a422 a5bb
000000a0: c925 33bb 1120 e73c 55aa b63b cf88 7b3e
000000b0: 9522 a93d fad1 92bd a8c8 db3e c294 fcbe
000000c0: 4785 43bd cc40 2cbe 07e2 1b38 a5bd 0cbe
000000d0: d102 13be c701 82be 827d 86be d230 2cbe
000000e0: 2d38 f9bd f694 74be 95e8 9cbe 3ecd 77be
000000f0: 060c 0dbe 7fe0 4abe c692 4abe 2382 4b3d
00000100: c850 113e 37bf 1b3e a583 643e 427e 95be
00000110: 4df4 f2bd ed2e 90be 029e 18be 6729 40be
00000120: fdaa 313e d1fb 413d ebce 7bbd 2555 c1be
00000130: a0b7 c23e 5dd8 ffbd 8474 9c3b 5602 45bd
00000140: 430d 60be d183 7fbe f76d 71be bc7b 3dbd
00000150: 1a81 113e b768 9a3d 8b14 2c3d e3d6 9dbd
00000160: 0be9 a13e d705 c7be f041 1a3e b17f f9bc
00000170: c31b 563d 0faf 843d 3108 11be 12dd fd3d
00000180: e4af 44bd 6c8d 45be 41f7 6dbe 1329 8ebe
00000190: 0809 9f3e 252f b23e 1f1d 0c3e 48e6 62be
000001a0: b04d b3be acfc bbbe 35bb abbe 9c6e 85be
000001b0: 7c0f 95be 844c 2cbe 27d0 67be 83ac 4bbe
000001c0: 0b25 b73d 0640 91be b3d5 0a3e 935f 6bbd
000001d0: 54dc a7be bb9f 6d3e 32f6 233e a654 83be
000001e0: 946c 17be 0543 67be 918b 3bbd 3560 5e3e
000001f0: f48b edbd 17ab 49be 81e5 7ebd fb47 b2be
00000200: 79dc 7ebd 961c efbd f699 a7be de6b 09be
00000210: 82a1 66be 6c81 0abe d634 0fbc b019 9dbc
00000220: 369f e23d 56e9 27bd 1647 0dbe d3e6 cdbe
00000230: a45d 2abe f2ea 49be ee59 5abd 09af 57bd
00000240: db7e 66be 4562 c2be 9243 943d 530c 4dbe
00000250: 3ade 953e 1c1f c13e 941c fbbd 26ae d2be
00000260: 6aa6 cabe 6708 1ebd ef4d 8bbe db4b fbbd
00000270: ef2b 8bbe e4f7 cdbe 80cd 7f3e aff8 083e
00000280: 7a08 94be 7af5 b53e 9be3 6ebe 62a3 a6be
00000290: 5c77 ddbe ed8d abbe 7904 8cbb ccaa 2ebe
000002a0: 46b7 68be d793 a43e bb2b d43e 0bc6 9dbe
000002b0: 282f 9ebe be73 01be 7a81 bebe 2239 dcbe
000002c0: 48da 65be 52f8 a2bd f316 56be 99a7 b4bd
000002d0: f04b cabe 6ffc 843e 3c51 323d 90db 213d
000002e0: f174 9fbc 4020 b9bd 9705 74be 2f71 b23e
000002f0: cfb2 563e e6ec 9abc 6817 df3e 4be2 5fbe

tcn.network.1.net.0.bias f4 [8]
-0.06766098 -0.4293375 0.112458244 -0.029124705 -0.45793477 -0.024897037 -0.06338248 -0.006250672
00000000: d791 8abd 20d2 dbbe 8250 e63d ef96 eebc
00000010: 6d76 eabe dff4 cbbc acce 81bd 70d2 ccbb

tcn.network.1.net.0.weight_g f4 [8, 1, 1]
0.99444324 0.31412667 0.7568075 0.70295215 0.23034686 0.6407345 0.5464777 1.0127405
00000000: d593 7e3f 36d5 a03e 23be 413f acf4 333f
00000010: 0ce0 6b3e 2d07 243f f6e5 0b3f 7ba1 813f

tcn.network.1.net.0.weight_v f4 [8, 8, 3]
-0.09516153 0.06863467 0.024315419 -0.17381582 -0.25600833 -0.16485578 -0.316365 -0.21745701
-0.084038086 -0.48793694 -0.50922644 0.058193445 -0.110717215 -0.068153836 0.19429947 -0.061810475
-0.0864093 -0.42505783 -0.14453009 -0.21526219 0.6042912 -0.19097573 -0.14304864 -0.032175407
-0.33225974 -0.32774404 0.30637753 -0.3168245 0.04548669 -0.021931048 -0.26037204 -0.038339585
-0.2731673 -0.1177948 -0.28070524 -0.27467567 -0.06512573 0.45863783 -0.31222036 0.020395616
-0.14117555 -0.22685373 0.16233653 -0.23378879 -0.22854985 -0.09373548 -0.36478245 -0.03231593
0.2892048 0.2317147 -0.08089043 0.1944506 -0.112941206 0.08666847 0.31299344 0.28502935
0.14083144 0.1441002 0.03248889 0.22245806 0.039208196 -0.023492228 0.07812128 -0.18178004
-0.08380955 0.48446676 -0.19203015 -0.259592 -0.37019345 -0.047421366 -0.14691643 0.34469762
-0.04340034 0.18234563 -0.03573597 -0.05174492 0.22690633 -0.12596184 0.25267547 0.22753757
0.16245295 0.431359 0.4164381 0.018331911 0.07553568 0.0753199 0.22301683 -0.18783616
0.058525853 -0.22655198 0.027026083 -0.28098047 -0.07709118 0.006208988 0.06302827 -0.03526611
0.23393881 -0.30957654 0.08969895 -0.3441766 -0.30880836 0.1307777 -0.31794742 -0.32445222
-0.40085423 -0.3616756 -0.16359118 -0.39087838 -0.49064913 -0.15358779 -0.086328775 -0.18010233
-0.1343552 -0.041049283 0.093611814 -0.10424622 0.21728863 -0.22353615 -0.049734853 -0.3778589
-0.15929376 -0.16641967 -0.07477882 0.037755165 -0.37539193 -0.015497881 0.023846142 -0.18976563
-0.051616337 -0.3089523 -0.01677675 -0.24386276 -0.2913532 0.020325335 -0.10741575 -0.30037144
0.036677368 -0.22362463 -0.10949174 -0.2727327 -0.042406015 -0.3013002 -0.08244464 -0.050950594
-0.3991125 0.12149449 0.048145864 0.20411249 -0.1672436 -0.2121838 -0.4067354 -0.25587264
0.22221357 -0.2038375 -0.3158715 -0.14906521 -0.01165936 -0.15856671 -0.025410961 0.26819652
-0.16166914 -0.0777589 0.15090732 -0.058665033 0.45142692 -0.19297317 0.003249245 0.14346144
-0.00661444 0.01138294 -0.03505401 0.13364525 -0.19931732 -0.074997604 -0.231419 -0.16156247
-0.13819405 -0.24906808 -0.3375064 -0.4495812 0.21802308 -0.18203859 -0.17913908 0.34601942
-0.11384196 -0.24499163 0.51847416 -0.4863503 0.16854014 -0.07933095 -0.11553416 -0.03395455
00000000: 0ce4 c2bd 5590 8c3d 2131 c73c c6fc 31be
00000010: 8613 83be f4cf 28be 98fa a1be 0dad 5ebe
00000020: 291c acbd dfd2 f9be aa5c 02bf 405c 6e3d
00000030: b5bf e2bd 3d94 8bbd 71f6 463e fb2c 7dbd
00000040: 5cf7 b0bd 2ea1 d9be b2ff 13be b16d 5cbe
00000050: d4b2 1a3f 248f 43be 587b 12be 5cca 03bd
00000060: f31d aabe 11ce a7be 84dd 9c3e d236 a2be
00000070: 4050 3a3d bea8 b3bc 7c4f 85be f809 1dbd
00000080: 96dc 8bbe 663e f1bd 99b8 8fbe 4aa2 8cbe
00000090: a460 85bd 94d2 ea3e 59db 9fbe b514 a73c
000000a0: 5390 10be 584c 68be 8c3b 263e 5466 6fbe
000000b0: f908 6abe 63f8 bfbd c4c4 babe b55d 04bd
000000c0: a712 943e 9e46 6d3e e2a9 a5bd 0f1e 473e
000000d0: b84d e7bd 3d7f b13d ad40 a03e 5eef 913e
000000e0: 1e36 103e 018f 133e 1213 053d 0ccc 633e
000000f0: c698 203d c672 c0bc 0dfe 9f3d 8c24 3abe
00000100: 57a4 abbd 070c f83e 8da3 44be 3ee9 84be
00000110: ff89 bdbe e83c 42bd 4371 16be 357c b03e
00000120: 8ec4 31bd d0b8 3a3e e15f 12bd 7bf2 53bd
00000130: 225a 683e 24fc 00be ae5e 813e 9cff 683e
00000140: 115a 263e 16db dc3e 6037 d53e ce2c 963c
00000150: 73b2 9a3d 5241 9a3d 865e 643e 1f58 40be
00000160: ceb8 6f3d 3efd 67be ce65 dd3c acdc 8fbe
00000170: fbe1 9dbd c474 cb3b f714 813d 3273 10bd
00000180: a88d 6f3e d180 9ebe 15b4 b73d ea37 b0be
00000190: 211c 9ebe 97ea 053e 01ca a2be 9a1e a6be
000001a0: c43c cdbe 8b2d b9be 7284 27be 3621 c8be
000001b0: 5d36 fbbe 1e46 1dbe 24cd b0bd bf6c 38be
000001c0: 6994 09be 4b23 28bd 8db7 bf3d 0b7f d5bd
000001d0: e980 5e3e a9e6 64be c6b6 4bbd b976 c1be
000001e0: e71d 23be eb69 2abe a325 99bd 29a5 1a3d
000001f0: 5f33 c0be d3ea 7dbc fc58 c33c ec51 42be
00000200: a76b 53bd ff2e 9ebe 656f 89bc 29b7 79be
00000210: 3f2c 95be 5181 a63c cafc dbbd 49ca 99be
00000220: 023b 163d dbfd 64be 353d e0bd 9fa3 8bbe
00000230: eeb1 2dbd 0544 9abe bcd8 a8bd 92b1 50bd
00000240: 7958 ccbe 1ad2 f83d 9934 453d dd02 513e
00000250: e841 2bbe b646 59be 9f3f d0be bd01 83be
00000260: f48b 633e c7ba 50be e9b9 a1be 8da4 18be
00000270: e606 3fbc 505f 22be a62a d0bc 0e51 893e
00000280: 988c 25be 0f40 9fbd 7387 1a3e bf4a 70bd
00000290: 6e21 e73e c29a 45be 49f1 543b 8ee7 123e
000002a0: f2bd d8bb 837f 3a3c cb94 0fbd 4dda 083e
000002b0: d719 4cbe 5898 99bd 1af9 6cbe a270 25be
000002c0: be82 0dbe b40b 7fbe a4cd acbe 822f e6be
000002d0: 7141 5f3e 5368 3abe 3c70 37be 7529 b13e
000002e0: f925 e9bd 16df 7abe b9ba 043f e802 f9be
000002f0: c995 2c3e 4478 a2bd 2c9d ecbd ed13 0bbd

tcn.network.1.net.4.bias f4 [8]
-0.22099231 -0.017535677 -0.23475882 -0.18956989 -0.21718344 -0.011728913 -0.19387238 -0.053004645
00000000: cf4b 62be fba6 8fbc 9e64 70be 9c1e 42be
00000010: 5665 5ebe a02a 40bc 7b86 46be 661b 59bd

tcn.network.1.net.4.weight_g f4 [8, 1, 1]
0.49419647 0.637892 0.5326613 0.21084084 0.33812478 0.52721417 0.34525105 0.5169968
00000000: 5207 fd3e e44c 233f 7e5c 083f a9e6 573e
00000010: b11e ad3e 82f7 063f bfc4 b03e e759 043f

tcn.network.1.net.4.weight_v f4 [8, 8, 3]
-0.15147065 0.2383987 -0.033526134 -0.25367916 0.21306959 0.18147829 0.030902127 -0.18868019
-0.06989316 -0.039030284 -0.01596904 -0.33687982 -0.3569359 0.3603156 0.18413714 -0.14836465
-0.29263178 0.22915526 -0.31737676 0.08550257 -0.13076237 0.12460648 -0.35082144 -0.24435228
-0.20483488 0.5297187 0.34976983 -0.09080285 0.10267553 0.016139783 -0.1142007 -0.27573735
-0.060231995 -0.39743295 -0.18973486 -0.22928846 0.08536432 0.041010212 -0.17791708 -0.00503953
-0.0027335754 0.028213533 0.0055745044 0.24563907 0.08258549 -0.07168956 0.42926526 -0.49332243
-0.047734525 -0.16821593 3.7165384e-05 -0.13744219 -0.14356543 -0.2539198 -0.2626763 -0.16815498
-0.12168918 -0.23884949 -0.30646196 -0.24199387 -0.13774118 -0.19812201 -0.19782552 0.049684655
0.14190972 0.15209661 0.22315843 -0.2919789 -0.11863003 -0.28160802 -0.14904025 -0.18765794
0.17350383 0.04735929 -0.06147663 -0.37760273 0.3803072 -0.1249244 0.004774632 -0.04809793
-0.21880059 -0.24952628 -0.23577105 -0.04626058 0.14209405 0.07539504 0.04201178 -0.07707002
0.3162311 -0.38871643 0.15064216 -0.030456396 0.05227257 0.06478702 -0.14163281 0.123956814
-0.048019305 -0.1929223 -0.23238851 -0.27765712 0.31061578 0.34801593 0.13682984 -0.22158158
-0.35020208 -0.3671621 -0.33541265 -0.2606095 -0.29113376 -0.16826063 -0.22637998 -0.19890027
0.08942612 -0.28369159 0.13558082 -0.057464194 -0.32785285 0.23205464 0.16011885 -0.2565052
-0.14787513 -0.2258416 -0.045787398 0.21716388 -0.115989596 -0.19694172 -0.06223059 -0.34820542
-0.062221978 -0.11675374 -0.3273465 -0.13420054 -0.22522548 -0.13525933 -0.008740624 -0.019177288
0.11065523 -0.04099401 -0.13796648 -0.40215167 -0.16637284 -0.19718531 -0.05330842 -0.05265716
-0.22509329 -0.379656 0.072394505 -0.20024233 0.29271108 0.37719047 -0.1226131 -0.4114849
-0.3958009 -0.03858223 -0.27207896 -0.12270328 -0.27181956 -0.40228188 0.24980736 0.13376115
-0.28912717 0.35538846 -0.23329012 -0.32546526 -0.43255126 -0.33506718 -0.004272994 -0.17057341
-0.22726163 0.32144043 0.41439614 -0.30815157 -0.30895352 -0.12641808 -0.37208158 -0.4301234
-0.22446549 -0.079575196 -0.20907192 -0.08821029 -0.3951106 0.25973842 0.043534502 0.03951603
-0.019464942 -0.09039354 -0.23830257 0.34851977 0.20966648 -0.01891179 0.43572545 -0.21863668
00000000: 1f1b 1bbe ca1e 743e b352 09bd 3ce2 81be
00000010: ea2e 5a3e 72d5 393e 7526 fd3c 6135 41be
00000020: 2524 8fbd 38de 1fbd 81d1 82bc 837b acbe
00000030: 4dc0 b6be 497b b83e 728e 3c3e e7ec 17be
00000040: d5d3 95be ada7 6a3e 357f a2be f91b af3d
00000050: 92e6 05be af31 ff3d de9e b3be 7c37 7abe
00000060: 3cc0 51be a59b 073f 0815 b33e d8f6 b9bd
00000070: 8c47 d23d 9437 843c 0ee2 e9bd 722d 8dbe
00000080: d3b5 76bd 557c cbbe db49 42be 98ca 6abe
00000090: 7dd3 ae3d 53fa 273d e52f 36be a422 a5bb
000000a0: c925 33bb 1120 e73c 55aa b63b cf88 7b3e
000000b0: 9522 a93d fad1 92bd a8c8 db3e c294 fcbe
000000c0: 4785 43bd cc40 2cbe 07e2 1b38 a5bd 0cbe
000000d0: d102 13be c701 82be 827d 86be d230 2cbe
000000e0: 2d38 f9bd f694 74be 95e8 9cbe 3ecd 77be
000000f0: 060c 0dbe 7fe0 4abe c692 4abe 2382 4b3d
00000100: c850 113e 37bf 1b3e a583 643e 427e 95be
00000110: 4df4 f2bd ed2e 90be 029e 18be 6729 40be
00000120: fdaa 313e d1fb 413d ebce 7bbd 2555 c1be
00000130: a0b7 c23e 5dd8 ffbd 8474 9c3b 5602 45bd
00000140: 430d 60be d183 7fbe f76d 71be bc7b 3dbd
00000150: 1a81 113e b768 9a3d 8b14 2c3d e3d6 9dbd
00000160: 0be9 a13e d705 c7be f041 1a3e b17f f9bc
00000170: c31b 563d 0faf 843d 3108 11be 12dd fd3d
00000180: e4af 44bd 6c8d 45be 41f7 6dbe 1329 8ebe
00000190: 0809 9f3e 252f b23e 1f1d 0c3e 48e6 62be
000001a0: b04d b3be acfc bbbe 35bb abbe 9c6e 85be
000001b0: 7c0f 95be 844c 2cbe 27d0 67be 83ac 4bbe
000001c0: 0b25 b73d 0640 91be b3d5 0a3e 935f 6bbd
000001d0: 54dc a7be bb9f 6d3e 32f6 233e a654 83be
000001e0: 946c 17be 0543 67be 918b 3bbd 3560 5e3e
000001f0: f48b edbd 17ab 49be 81e5 7ebd fb47 b2be
00000200: 79dc 7ebd 961c efbd f699 a7be de6b 09be
00000210: 82a1 66be 6c81 0abe d634 0fbc b019 9dbc
00000220: 369f e23d 56e9 27bd 1647 0dbe d3e6 cdbe
00000230: a45d 2abe f2ea 49be ee59 5abd 09af 57bd
00000240: db7e 66be 4562 c2be 9243 943d 530c 4dbe
00000250: 3ade 953e 1c1f c13e 941c fbbd 26ae d2be
00000260: 6aa6 cabe 6708 1ebd ef4d 8bbe db4b fbbd
00000270: ef2b 8bbe e4f7 cdbe 80cd 7f3e aff8 083e
00000280: 7a08 94be 7af5 b53e 9be3 6ebe 62a3 a6be
00000290: 5c77 ddbe ed8d abbe 7904 8cbb ccaa 2ebe
000002a0: 46b7 68be d793 a43e bb2b d43e 0bc6 9dbe
000002b0: 282f 9ebe be73 01be 7a81 bebe 2239 dcbe
000002c0: 48da 65be 52f8 a2bd f316 56be 99a7 b4bd
000002d0: f04b cabe 6ffc 843e 3c51 323d 90db 213d
000002e0: f174 9fbc 4020 b9bd 9705 74be 2f71 b23e
000002f0: cfb2 563e e6ec 9abc 6817 df3e 4be2 5fbe

tcn.network.2.conv1.bias f4 [8]
0.066789344 -0.24632677 0.01587135 -0.20081161 -0.2755278 -0.04796453 -0.08826844 -0.0913917
00000000: dac8 883d 163d 7cbe a204 823c 8fa1 4dbe
00000010: fb11 8dbe 7476 44bd 15c6 b4bd 922b bbbd

tcn.network.2.conv1.weight_g f4 [8, 1, 1]
0.6597737 0.5844985 0.9993277 0.6452154 0.4045123 0.99533486 0.7182073 0.7271577
00000000: eee6 283f b2a1 153f f1d3 7f3f d62c 253f
00000010: 3c1c cf3e 44ce 7e3f 6fdc 373f 0227 3a3f

tcn.network.2.conv1.weight_v f4 [8, 8, 3]
0.023719562 0.026988272 -0.16246907 -0.16682114 0.328817 0.11964882 0.046004497 -0.2541723
-0.25178748 -0.28338516 0.3345853 0.18180479 -0.21975008 -0.15276945 -0.38865027 -0.22423217
0.40830192 0.43338242 0.16798025 0.19458272 -0.085039176 -0.25085935 -0.09618372 -0.21712892
0.47148305 -0.79906386 0.03178811 0.10403597 -0.5289099 -0.123440616 -0.119775005 0.24511722
-0.40247864 0.3374297 -0.2053747 -0.0042691715 -0.06596403 -0.22888409 -0.25646484 -0.09767713
0.36126047 -0.15157048 0.24150544 0.22946104 -0.20833562 -0.028727787 -0.115659416 0.0882729
-0.10365565 0.15219241 0.024686042 -0.45006716 -0.21302791 -0.06140434 0.17545941 0.3278513
0.4190622 -0.20376873 -0.20969969 0.24830864 -0.16054861 0.1751937 -0.38675663 -0.3962943
-0.22303073 -0.22912836 0.101721145 -0.25085708 1.0513501 0.09430038 -0.076301485 -0.02075344
0.28783685 -0.18097045 -0.18634827 -0.2272451 -0.08088853 -0.050630778 0.49695766 -0.21961711
-0.08607731 0.050254848 0.12683031 -0.30017248 0.0018370894 0.27548623 0.1981688 -0.4080953
0.08745967 -0.04743244 -0.19554454 -0.052599747 -0.21506198 0.13304622 0.11145374 0.0029116233
-0.13422756 0.082650416 -0.2760108 -0.25355726 -0.11703598 -0.028954808 -0.19186337 -0.1689386
-0.16343908 -0.2675318 -0.28923646 -0.3268697 -0.13970819 0.10689522 0.08255262 -0.096642874
-0.2709055 -0.14694728 0.060291875 -0.11026885 -0.034265477 -0.101724364 -0.04662632 -0.071824625
-0.029067943 -0.3858283 -0.3182785 0.16629171 0.012921345 -0.10547291 -0.17645898 -0.4176826
-0.10496389 0.047184467 0.1800992 -0.08194689 -0.085440665 -0.31498316 -0.2348218 0.7056734
1.0998915 -0.25186136 -0.1269379 -0.120957844 -0.19714186 0.0959865 0.1581369 0.020955656
0.1312531 -0.08501504 -0.09915471 0.16553818 -0.09926088 -0.049042888 0.5450023 0.33431056
0.103397 -0.19045599 -0.24056609 -0.3790194 0.17183565 0.32141563 0.1979732 -0.122356944
0.059075166 0.066713996 -0.4101148 -0.18143709 0.20064826 -0.03834523 0.044257954 -0.16086096
0.25210112 0.18258128 -0.28551295 0.08021822 0.52754825 -0.13615865 0.2696912 0.2704295
-0.08692417 0.038565084 0.18968831 -0.25054458 0.13333333 0.0054457407 -0.24274985 0.1787387
0.68278456 0.40727395 -0.41756895 0.22471577 0.22674993 -0.019529156 0.15377508 0.1353256
00000000: 874f c23c 8216 dd3c 4b5e 26be 29d3 2abe
00000010: b45a a83e 710a f53d 366f 3c3d df22 82be
00000020: 4aea 80be dc17 91be c44e ab3e 092b 3a3e
00000030: 2a06 61be 986f 1cbe 2bfd c6be 1e9d 65be
00000040: f30c d13e 4de4 dd3e 0403 2c3e b140 473e
00000050: 0529 aebd a370 80be f8fb c4bd 0b57 5ebe
00000060: 3a66 f13e 738f 4cbf 4034 023d d010 d53d
00000070: a466 07bf 6fce fcbd 994c f5bd 0200 7b3e
00000080: ae11 cebe 96c3 ac3e bf4d 52be 68e4 8bbb
00000090: 2618 87bd 9760 6abe 5c4f 83be f20a c8bd
000000a0: 22f7 b83e 4b35 1bbe 344d 773e d6f7 6a3e
000000b0: ef55 55be 8956 ebbc d8de ecbd 6cc8 b43d
000000c0: 6a49 d4bd 54d8 1b3e 623a ca3c 346f e6be
000000d0: fd23 5abe 1e83 7bbd a2ab 333e 20dc a73e
000000e0: 528f d63e c0a8 50be 84bb 56be 9f44 7e3e
000000f0: db66 24be fa65 333e f704 c6be 16e7 cabe
00000100: 2b62 64be a0a0 6abe 2d53 d03d 5770 80be
00000110: a492 863f 8f20 c13d f443 9cbd 1e03 aabc
00000120: 5a5f 933e 5150 39be 15d2 3ebe f1b2 68be
00000130: e3a8 a5bd 3862 4fbd 3c71 fe3e 4fe3 60be
00000140: 4d49 b0bd 07d8 4d3d cedf 013e 35b0 99be
00000150: 7eca f03a 880c 8d3e c3ec 4a3e def1 d0be
00000160: 0e1e b33d 8548 42bd d43c 48be d572 57bd
00000170: 3539 5cbe 453d 083e dc41 e43d efd0 3e3b
00000180: f372 09be 9f44 a93d 4a51 8dbe 42d2 81be
00000190: 8fb0 efbd a232 edbc d577 44be 3efe 2cbe
000001a0: 935c 27be eef9 88be cd16 94be 775b a7be
000001b0: aa0f 0fbe e2eb da3d 5911 a93d b3ec c5bd
000001c0: 20b4 8abe 5979 16be 9df4 763d a3d4 e1bd
000001d0: f559 0cbd dd54 d0bd 3dfb 3ebd ca18 93bd
000001e0: e51f eebc 498b c5be 66f5 a2be 6048 2a3e
000001f0: 0db4 533c 2e02 d8bd aab1 34be 7eda d5be
00000200: 4ff7 d6bd 8044 413d ed6b 383e c5d3 a7bd
00000210: 84fb aebd 7945 a1be 2075 70be 03a7 343f
00000220: 3fc9 8c3f f9f3 80be 02fc 01be bfb8 f7bd
00000230: 8edf 49be 9294 c43d a4ee 213e 32ab ab3c
00000240: 3667 063e 5e1c aebd a011 cbbd d782 293e
00000250: 4a49 cbbd 32e1 48bd 4585 0b3f c12a ab3e
00000260: cec1 d33d e506 43be f556 76be d50e c2be
00000270: aff5 2f3e 9790 a43e 7db9 4a3e 4796 fabd
00000280: cdf8 713d 59a1 883d 91fa d1be a5ca 39be
00000290: bd76 4d3e e30f 1dbd d447 353d bcb8 24be
000002a0: 6613 813e 96f6 3a3e c12e 92be 7349 a43d
000002b0: 670d 073f 2c6d 0bbe f714 8a3e bc75 8a3e
000002c0: 4d05 b2bd 6cf6 1d3d a73d 423e 6147 80be
000002d0: 8888 083e 2f72 b23b 6b93 78be 4707 373e
000002e0: f8ca 2e3f 3686 d03e 99cb d5be e41b 663e
000002f0: 2231 683e 9cfb 9fbc 3777 1d3e cb92 0a3e

tcn.network.2.conv2.bias f4 [8]
-0.21911576 -0.03966705 -0.068421975 -0.076943986 -0.262048 -0.19266997 -0.36761466 -0.035368353
00000000: e25f 60be eb79 22bd d220 8cbd cf94 9dbd
00000010: 282b 86be 474b 45be fd37 bcbe 68de 10bd

tcn.network.2.conv2.weight_g f4 [8, 1, 1]
0.37931335 0.5054465 0.68161845 0.8690195 0.35905045 0.30282503 0.27487049 0.8492673
00000000: 5c35 c23e f164 013f 8c7e 2e3f 1078 5e3f
00000010: 76d5 b73e e20b 9b3e d3bb 8c3e 9569 593f

tcn.network.2.conv2.weight_v f4 [8, 8, 3]
-0.14521833 -0.29588288 -0.1676833 0.049762923 -0.14220409 0.13696238 -0.023605224 0.01754251
-0.14987814 -0.031099798 -0.13184343 0.054356337 -0.16712718 0.27393085 0.13225064 -0.08845299
-0.16085759 -0.28565848 -0.074857466 -0.17492619 -0.17364885 -0.25090978 -0.0920145 -0.16053104
-0.053498592 -0.115481466 -0.46245766 -0.0032103185 0.13358812 -0.0708847 -0.25648907 0.0065537924
0.30180904 -0.31002966 -0.27298242 -0.39712006 -0.38943595 -0.47792783 -0.42133316 -0.17311303
0.17362265 -0.09982835 0.07268785 -0.1181743 -0.23728226 0.10638676 0.06987467 -0.27517715
-0.33284426 -0.04654026 -0.30412403 -0.17289163 -0.22713345 -0.2296475 -0.22204322 -0.31111398
-0.29186895 -0.30557254 -0.19868606 0.10306726 0.018588996 -0.011346055 0.017111892 -0.25099367
-0.24371819 -0.2266791 -0.012412781 0.2503829 0.20567699 -0.23936905 0.042052615 -0.025988134
-0.43745142 -0.29962358 -0.040185276 0.37170407 -0.19381723 -0.41623348 -0.63588417 0.4865184
-0.13857445 -0.033445314 -0.0025629043 0.094545975 0.0014195981 0.00016549509 -0.016211111 -0.2554944
-0.08323875 -0.18043645 -0.30352083 -0.12560746 0.029042985 -0.1523602 -0.43279368 0.1084733
-0.08614988 -0.11410526 -0.11639117 0.06819214 0.39699337 -0.4014426 0.12454169 0.42930692
-0.3074054 0.12451624 -0.2860355 -0.13340363 0.31886363 -0.30632856 -0.34095946 0.1679106
-0.37098217 -0.51040953 -0.114325956 -0.43755686 -0.20124446 -0.058489814 -0.23183303 0.07653889
-0.10597883 -0.17152636 -0.15283258 -0.14576602 0.42868856 0.23856506 -0.048312925 -0.15105264
-0.40595806 -0.044693183 -0.22734918 -0.20685083 -0.058463182 0.21643814 0.23698778 -0.0914617
-0.11170789 -0.16132987 0.076506816 -0.48602763 0.34291175 0.32352322 -0.42110628 -0.35057998
-0.2345888 -0.13776024 -0.13117017 -0.19801992 -0.16119401 0.18282302 -0.32755277 0.2915191
0.11067703 -0.38839725 -0.34644118 0.08700373 -0.25017363 0.23278295 -0.2342462 -0.15761927
-0.038125034 -0.10672139 0.062235557 -0.24072328 -0.40204865 -0.04110891 -0.09331442 0.10681808
0.11441372 -0.17725608 -0.030988544 -0.14920247 0.32072416 -0.36571303 -0.25820166 -0.39449972
-0.27603006 0.005495962 -0.100530244 -0.09446165 0.00017015147 0.0013122946 -0.00076252327 0.31789842
0.29513824 -0.10994424 -0.3956152 -0.4614262 -0.40067017 0.30516475 -0.33560863 -0.44717312
00000000: 1db4 14be f67d 97be 2cb5 2bbe 35d4 4b3d
00000010: f39d 11be de3f 0c3e be5f c1bc 4fb5 8f3c
00000020: a879 19be 01c5 febc f701 07be c0a4 5e3d
00000030: 6323 2bbe aa40 8c3e b66c 073e d726 b5bd
00000040: dab7 24be d441 92be df4e 99bd da1f 33be
00000050: 01d1 31be 3f77 80be 1972 bcbd 4062 24be
00000060: 5721 5bbd 8c81 ecbd 40c7 ecbe 3564 52bb
00000070: 53cb 083e ff2b 91bd 8952 83be 32c1 d63b
00000080: b786 9a3e 35bc 9ebe 5ac4 8bbe 5253 cbbe
00000090: 2664 c7be f5b2 f4be fbb8 d7be 8b44 31be
000000a0: 23ca 313e ce72 ccbd 5edd 943d 5e05 f2bd
000000b0: 1ffa 72be 4de1 d93d 731a 8f3d 05e4 8cbe
000000c0: 906a aabe 00a1 3ebd 25b6 9bbe 810a 31be
000000d0: ac95 68be b728 6bbe 4c5f 63be 554a 9fbe
000000e0: d96f 95be 0174 9cbe 5c74 4bbe ed14 d33d
000000f0: f347 983c cee4 39bc 3d2e 8c3c 3e82 80be
00000100: 4391 79be 911e 68be fa5e 4bbc 3032 803e
00000110: fd9c 523e 291d 75be 5d3f 2c3d 11e5 d4bc
00000120: a2f9 dfbe 4368 99be 5199 24bd ff4f be3e
00000130: 0678 46be 8e1c d5be 4ec9 22bf f118 f93e
00000140: 76e6 0dbe f4fd 08bd 66f6 27bb 52a1 c13d
00000150: cf11 ba3a c088 2d39 2acd 84bc 29d0 82be
00000160: 1479 aabd 55c4 38be 1567 9bbe 3e9f 00be
00000170: 8eeb ed3c 5004 1cbe 2297 ddbe 4027 de3d
00000180: 596f b0bd 05b0 e9bd 7e5e eebd 52a8 8b3d
00000190: b742 cb3e e289 cdbe b70f ff3d 1ece db3e
000001a0: 3e64 9dbe 5f02 ff3d 3f73 92be f69a 08be
000001b0: 1842 a33e 19d7 9cbe 3d92 aebe c2f0 2b3e
000001c0: 60f1 bdbe 33aa 02bf ba23 eabd 7407 e0be
000001d0: 0713 4ebe 0493 6fbd a365 6dbe 6cc0 9c3d
000001e0: 6e0b d9bd 9ba4 2fbe 2580 1cbe b043 15be
000001f0: 117d db3e 664a 743e c6e3 45bd 8bad 1abe
00000200: bcd9 cfbe 3310 37bd 39ce 68be b4d0 53be
00000210: 1777 6fbd f6a1 5d3e edac 723e 4650 bbbd
00000220: 1bc7 e4bd a833 25be 9baf 9c3d 9dd8 f8be
00000230: 2192 af3e d6a4 a53e 3e9b d7be 387f b3be
00000240: 0c38 70be 0511 0dbe 7951 06be bcc5 4abe
00000250: 0b10 25be f535 3b3e ffb4 a7be fe41 953e
00000260: a4aa e23d 01dc c6be bd60 b1be 032f b23d
00000270: c216 80be a75e 6e3e 3cde 6fbe f266 21be
00000280: ff28 1cbd be90 dabd b6ea 7e3d 2a80 76be
00000290: 52d9 cdbe d161 28bd a11b bfbd 70c3 da3d
000002a0: be51 ea3d 9e82 35be b0db fdbc 88c8 18be
000002b0: f535 a43e bd3e bbbe 0233 84be defb c9be
000002c0: d053 8dbe 7917 b43b cde2 cdbd 1c75 c1bd
000002d0: b06a 3239 4d01 ac3a 12e4 47ba 95c3 a23e
000002e0: 5c1c 973e 722a e1bd 138e cabe 0e40 ecbe
000002f0: a424 cdbe 8e3e 9c3e e5d4 abbe e0f3 e4be

tcn.network.2.net.0.bias f4 [8]
0.066789344 -0.24632677 0.01587135 -0.20081161 -0.2755278 -0.04796453 -0.08826844 -0.0913917
00000000: dac8 883d 163d 7cbe a204 823c 8fa1 4dbe
00000010: fb11 8dbe 7476 44bd 15c6 b4bd 922b bbbd

tcn.network.2.net.0.weight_g f4 [8, 1, 1]
0.6597737 0.5844985 0.9993277 0.6452154 0.4045123 0.99533486 0.7182073 0.7271577
00000000: eee6 283f b2a1 153f f1d3 7f3f d62c 253f
00000010: 3c1c cf3e 44ce 7e3f 6fdc 373f 0227 3a3f
