data/model_v0.pth (torch_old, 222736 bytes, 79 tensors)

w_layers.0.0.weight f4 [12, 6, 3]
0.5475257 -0.61182636 0.35270208 2.3226318 1.4651213 0.49411544 -0.75669515 -0.6865831
-2.1375875 -3.6148903 -0.6913197 -2.464473 -0.058404617 -0.07261427 0.052090142 0.21073508
-0.057661004 0.021697761 -4.4632974 -0.7229813 -4.992496 1.1409769 0.22681771 0.039747216
1.1039028 -0.3062986 -0.51347935 1.3256905 -0.7820007 1.5936593 -0.03491035 0.08066475
-0.1417353 0.43630198 0.1633111 0.61699665 -3.5483913 -2.1923683 -2.461292 -0.18319096
-0.37270698 -0.4519213 1.394311 -0.06092225 0.55445695 -0.57376534 -1.0539299 -1.3905244
1.3147582 1.6788927 1.3306955 0.41721317 0.3416168 0.19660617 -0.9008874 -0.023848033
0.23810339 0.4666118 0.12555873 0.09369036 1.5656301 0.07621439 0.79225695 4.1785035
1.232833 5.3107176 -1.0569491 -0.99842924 -1.1797179 0.55830854 0.37753004 0.504436
1.7893198 0.9825469 -0.033421934 -0.76066905 0.2598246 -1.1893758 -0.5100131 -0.048806153
-1.0298889 1.8373066 2.5574536 -0.73265344 0.263817 -0.13646327 -0.21686436 0.68836105
0.7103593 0.64538264 0.21878561 0.6568503 -0.1734834 -0.13925068 -0.4187064 -1.9235287
-0.41921723 -0.61988974 -1.4372681 2.6937792 0.47721496 2.7325485 0.010982496 -0.03265258
-0.34526393 1.6765864 2.0086493 2.0017595 -0.9522835 -0.23346303 -1.8837293 -1.6943544
-1.374639 -0.78428125 2.1320832 1.899545 3.1229196 0.11186821 -0.87230456 -0.56424123
-0.10267484 0.07764844 0.17690997 -0.5679658 -0.33127776 -0.39592454 0.98836553 -0.019092625
0.66027796 -0.53364193 -1.7251403 -2.7748773 -1.5893282 -0.39997286 -0.42019585 0.20066166
-1.5645065 0.3558199 1.0445037 0.6409367 0.5244127 0.9592395 1.0476769 1.0729227
1.3128713 0.39718 0.8147946 -1.5291079 -0.14962296 -1.7639197 -1.0205437 0.5236026
-1.6090449 2.039164 -1.0737982 1.3425885 0.45931163 0.11257455 -0.31031504 2.1526492
2.1663787 2.1014042 1.6222799 1.7404549 0.29029402 -1.8897505 -1.2355545 -1.5977013
-0.085180074 -0.26196578 -0.9682825 2.1133182 1.4752799 0.542251 -0.7130475 -0.69552207
-0.9266376 0.8732796 1.0298717 0.9333919 1.1478419 -0.5068725 1.3106762 2.1872404
1.4287456 0.842175 -1.2124467 -1.0457076 -2.5561423 -0.7451444 -1.6380366 -0.3678662
0.0124581205 -0.3226546 -0.08679883 0.20176415 -0.1397578 -0.03370054 0.0051939413 0.94045836
0.72812504 -0.16349345 0.12741756 -0.32404688 1.1919401 0.49540415 0.72301835 4.7119784
1.2207928 6.078245 -0.60194665 -0.32965714 -0.45858052 0.1197842 -0.13614972 0.074026056
00000000: a52a 0c3f a7a0 1cbf 5e95 b43e 00a6 1440
00000010: 1889 bb3f b3fc fc3e c6b6 41bf e9c3 2fbf
00000020: 3cce 08c0 5d5a 67c0 54fa 30bf edb9 1dc0
00000030: ae39 6fbd cab6 94bd 795c 553d f0ca 573e
00000040: f22d 6cbd 81bf b13c 55d3 8ec0 4d15 39bf
00000050: 87c2 9fc0 880b 923f e742 683e facd 223d
00000060: b04c 8d3f 2cd3 9cbe 6273 03bf 3ab0 a93f
00000070: 3331 48bf 07fd cb3f 28fe 0ebd 8f33 a53d
00000080: 0f23 11be f962 df3e 063b 273e 7ef3 1d3f
00000090: d818 63c0 c34f 0cc0 cf85 1dc0 6996 3bbe
000000a0: 73d3 bebe 3b62 e7be c878 b23f 9c89 79bd
000000b0: e4f0 0d3f 49e2 12bf 2de7 86bf b4fc b1bf
000000c0: ff49 a83f f5e5 d63f 3b54 aa3f f79c d53e
000000d0: 66e8 ae3e 2153 493e 8fa0 66bf f35c c3bc
000000e0: 60d1 733e bee7 ee3e 7892 003e bbe0 bf3d
000000f0: 9166 c83f 4a16 9c3d 5ad1 4a3f 4db6 8540
00000100: 79cd 9d3f 66f1 a940 1c4a 87bf 0f99 7fbf
00000110: ff00 97bf 4fed 0e3f 9e4b c13e b822 013f
00000120: 6e08 e53f 3288 7b3f 70e5 08bd 35bb 42bf
00000130: bb07 853e 773d 98bf 3890 02bf f6e8 47bd
00000140: 66d3 83bf dd2c eb3f 52ad 2340 2d8f 3bbf
00000150: 0613 873e 07bd 0bbe b111 5ebe 6e38 303f
00000160: 1bda 353f cc37 253f 5609 603e 5727 283f
00000170: a2a5 31be bb97 0ebe af60 d6be 3036 f6bf
00000180: a4a3 d6be 18b1 1ebf 67f8 b7bf e166 2c40
00000190: 8555 f43e 13e2 2e40 edef 333c b6be 05bd
000001a0: 6fc6 b0be 629a d63f b68d 0040 d41c 0040
000001b0: dac8 73bf ef10 6fbe 0b1e f1bf 9be0 d8bf
000001c0: 2cf4 afbf a8c6 48bf 0d74 0840 4a24 f33f
000001d0: eadd 4740 291b e53d 5a4f 5fbf 1d72 10bf
000001e0: 3047 d2bd 2506 9f3d e327 353e 3566 11bf
000001f0: 3d9d a9be 9fb6 cabe 8605 7d3f 2368 9cbc
00000200: fa07 293f c29c 08bf 66d1 dcbf 9797 31c0
00000210: 1b6f cbbf 3ec9 ccbe e923 d7be 407a 4d3e
00000220: c041 c8bf 072e b63e 4cb2 853f 6d14 243f
00000230: e93f 063f b890 753f 471a 863f 8855 893f
00000240: 2b0c a83f 2d5b cb3e 6196 503f cfb9 c3bf
00000250: c336 19be 1fc8 e1bf 2da1 82bf d20a 063f
00000260: 2ff5 cdbf aa81 0240 3872 89bf f1d9 ab3f
00000270: e52a eb3e 7c8d e63d 9de1 9ebe 01c5 0940
00000280: f3a5 0a40 687d 0640 dea6 cf3f 3ac7 de3f
00000290: 6ba1 943e 58e3 f1bf a626 9ebf 7a81 ccbf
000002a0: e472 aebd 6120 86be 5de1 77bf 9b40 0740
000002b0: f9d5 bc3f f6d0 0a3f 488a 36bf bc0d 32bf
000002c0: 1f38 6dbf 408f 5f3f d6d2 833f c6f2 6e3f
000002d0: 7cec 923f 65c2 01bf 3dc4 a73f bffb 0b40
000002e0: 23e1 b63f c898 573f 7431 9bbf bfd9 85bf
000002f0: d697 23c0 c9c1 3ebf 2fab d1bf f558 bcbe
00000300: 251d 4c3c fc32 a5be 96c3 b1bd 439b 4e3e
00000310: ab1c 0fbe 9409 0abd f031 aa3b e1c1 703f
00000320: 6766 3a3f d46a 27be c079 023e 79e9 a5be
00000330: 7e91 983f 9da5 fd3e bb17 393f 87c8 9640
00000340: f042 9c3f fc80 c240 2d19 1abf d2c8 a8be
00000350: 11cb eabe 6b51 f53d d56a 0bbe f99a 973d

w_layers.0.0.bias f4 [12]
3.2679007 1.2752868 -1.207025 0.08166238 -3.085899 -2.8033073 1.6489004 -2.995249
-2.8117807 -2.3165727 -0.17416447 0.5610997
00000000: 4925 5140 993c a33f cc7f 9abf 9b3e a73d
00000010: 5f7f 45c0 6369 33c0 2b0f d33f 29b2 3fc0
00000020: 37f4 33c0 ba42 14c0 2c58 32be 3ba4 0f3f

w_layers.0.3.weight f4 [12]
1.3585217 2.1263201 1.8578414 1.3462187 1.880234 1.6385828 1.2314878 1.716005
1.2175663 1.8424464 1.3284816 1.4418015
00000000: 0ae4 ad3f a115 0840 bfcd ed3f e550 ac3f
00000010: 82ab f03f 15bd d13f 64a1 9d3f 0da6 db3f
00000020: 36d9 9b3f 49d5 eb3f af0b aa3f f48c b83f

w_layers.0.3.bias f4 [12]
0.1406407 0.9913326 0.29923528 0.1295963 0.32745054 0.11136738 0.08893753 -0.0014972799
-0.5878529 0.5128874 -0.2596589 0.2172047
00000000: 1e04 103e f9c7 7d3f 5e35 993e e4b4 043e
00000010: 99a7 a73e 9514 e43d e124 b63d 6040 c4ba
00000020: 877d 16bf 974c 033f 03f2 84be e96a 5e3e

w_layers.0.3.running_mean f4 [12]
4.2467837 2.6133626 0.67257893 2.2574024 0.25607365 0.55344504 2.0223463 0.7246934
0.23557866 0.8258295 1.2452813 2.8216329
00000000: a7e5 8740 5541 2740 222e 2c3f 4879 1040
00000010: 161c 833e 93ae 0d3f 1f6e 0140 8285 393f
00000020: 883b 713e 9069 533f 6165 9f3f a295 3440

w_layers.0.3.running_var f4 [12]
7.2818727 17.684282 2.2681801 28.027708 1.8941122 3.416583 4.4294567 3.768177
0.8360405 4.2625875 2.1157944 36.581226
00000000: 1a05 e940 6979 8d41 dd29 1140 bf38 e041
00000010: 4572 f23f 4ca9 5a40 1cbe 8d40 d029 7140
00000020: c006 563f 1e67 8840 2d69 0740 2d53 1242

w_layers.1.0.weight f4 [15, 12, 5]
-3.451287 -2.3202188 -2.787707 -1.7439734 -1.8476305 -1.394344 -1.3136253 -1.2029387
-1.5739322 -3.964095 -2.123421 -1.39447 0.08899042 -3.725091 -2.9361875 -0.13630125
-0.28268856 0.5663825 0.48919103 0.9764864 0.49731982 0.33560982 -0.521436 1.5363344
0.16815214 -0.053505745 0.20580311 0.115090474 -0.52569085 0.69796115 -1.3436573 -1.0221575
-0.8392214 -0.666838 -0.37591624 0.9480446 0.8542984 1.4139667 -0.06575689 -0.8592001
0.3163748 0.36842325 0.76053727 0.14249296 -0.002858621 0.42350748 0.7580359 0.4195078
0.056676477 -1.4902169 -3.398511 -2.1282551 -1.5736468 -1.6913602 -2.0738869 0.31142333
-0.33962023 0.13173147 0.75293726 1.6301262 -0.3502936 -0.5476179 0.42746246 0.37414524
-0.77439886 -0.62784374 -1.5593535 -4.4220533 -2.7080028 -2.0726464 -1.3468322 -1.5638027
-0.102778 1.6542422 -0.8137316 0.29055423 0.07675467 -1.4758385 -0.5595092 0.27827376
0.24071924 -1.0880634 -0.3911522 -0.37059703 0.86265033 -0.41309577 -0.9416254 -1.4739355
0.43077177 0.78574836 1.8390073 1.0408926 0.68742925 1.3628483 1.5128368 -2.1301281
-2.792403 -0.9935763 1.296398 -0.5320333 -2.407846 -0.09341784 -1.0238968 1.7143358
0.48569715 -0.78061634 -4.739236 -1.7124194 1.7111629 1.7483168 -1.3118302 -0.85264
0.024492398 -0.46463996 -2.0911903 0.4230144 0.4978774 -0.059774302 -0.18040729 0.7176366
0.14584103 -1.2934505 -0.41004497 0.33150786 -0.6820165 -1.7748369 1.0349735 0.21541122
-3.0185738 -5.17255 0.22597873 -0.16504517 -1.244313 0.7860495 -5.2156997 -0.028101888
0.8491693 0.7248129 -0.650813 0.3657714 0.59524137 -0.21678032 -1.4812467 0.72331375
-0.48163018 0.33753464 -2.3378916 -2.7199626 0.355404 0.98861694 -0.5450287 -0.9370011
-1.7921773 -1.0242014 -0.61971366 -2.3867567 -2.6088886 -2.0025756 1.4275626 -2.1809914
-0.3161416 -0.39895058 -1.7596884 0.54436755 1.0567334 -0.4544265 -1.7359262 -6.9317026
-0.339929 0.35530698 1.2580816 0.6400289 0.85251874 0.38578606 -0.47167754 0.68397754
1.1322706 0.9187876 -0.4276157 0.6976613 0.545436 -0.22431262 -0.9864778 -1.1636502
-0.98704934 -0.8565504 -0.2122903 0.42895812 0.15573314 -0.017015286 0.1725623 -0.51705134
0.8431776 -0.5432848 0.03230965 0.6361714 -1.3478087 -1.0800871 -0.5671873 -1.7504661
0.5181604 -1.4433724 -0.44569105 -1.5651447 -6.2940354 -0.65491545 -2.7754145 -2.8176117
-2.5853999 -4.4304433 1.1050378 0.6417186 1.9965595 1.2517842 2.379764 1.6112807
0.21927771 1.1265972 0.07994607 -0.49999407 -0.19692528 -1.4944242 0.3682566 -1.3130015
-1.5808849 0.70280576 -0.41116396 1.0597029 -1.1444081 -1.7735915 0.082027785 -1.2237163
-1.6668022 -2.9115887 -1.8262258 0.6017353 -1.4192582 -0.63337183 -0.35647324 -1.7763588
2.3985784 2.508961 1.9284407 0.9732899 -0.6593233 -0.9536615 -0.48384914 0.5091247
0.2591647 -0.5865636 -3.570812 -1.9781154 0.12429518 -0.8036409 -2.0904236 -3.2741153
00000000: e3e1 5cc0 777e 14c0 cb69 32c0 853a dfbf
00000010: 287f ecbf dd79 b2bf e024 a8bf e5f9 99bf
00000020: 9c76 c9bf bcb3 7dc0 21e6 07c0 fe7d b2bf
00000030: 9c40 b63d e467 6ec0 7fea 3bc0 8e92 0bbe
00000040: 8ebc 90be 72fe 103f 3f77 fa3e 03fb 793f
00000050: b4a0 fe3e 0dd5 ab3e d47c 05bf 9ba6 c43f
00000060: 1330 2c3e d728 5bbd 0dbe 523e 8eb4 eb3d
00000070: ad93 06bf 95ad 323f f6fc abbf 0fd6 82bf
00000080: 37d7 56bf e5b5 2abf 1878 c0be 0db3 723f
00000090: 4db3 5a3f dcfc b43f 8cab 86bd 8af4 5bbf
000000a0: e1fb a13e f9a1 bc3e 92b2 423f ade9 113e
000000b0: b457 3bbb f9d5 d83e a40e 423f bac9 d63e
000000c0: 9825 683d 6dbf bebf 3481 59c0 5535 08c0
000000d0: 426d c9bf 7e7e d8bf 90ba 04c0 e172 9f3e
000000e0: b4e2 adbe 9de4 063e 7fc0 403f faa7 d03f
000000f0: af59 b3be b030 0cbf 5cdc da3e f78f bf3e
00000100: 013f 46bf 5eba 20bf e598 c7bf 7681 8dc0
00000110: eb4f 2dc0 3da6 04c0 ff64 acbf b02a c8bf
00000120: 467d d2bd 35be d33f b750 50bf 86c3 943e
00000130: 8d31 9d3d 47e8 bcbf ff3b 0fbf e679 8e3e
00000140: 1b7f 763e a945 8bbf 1a45 c8be e5be bdbe
00000150: a7d6 5c3f 4a81 d3be 5d0e 71bf eba9 bcbf
00000160: 1e8e dc3e ce26 493f 9764 eb3f f83b 853f
00000170: 5dfb 2f3f d071 ae3f a3a4 c13f 0554 08c0
00000180: bbb6 32c0 045b 7ebf 5ff0 a53f 5633 08bf
00000190: 261a 1ac0 da51 bfbd 0d0f 83bf 5b6f db3f
000001a0: 4cad f83e 79d6 47bf d2a7 97c0 8f30 dbbf
000001b0: 6307 db3f d8c8 df3f 0dea a7bf 9d46 5abf
000001c0: 48a4 c83c 4ae5 edbe 10d6 05c0 5895 d83e
000001d0: c9e9 fe3e e6d5 74bd b0bc 38be 08b7 373f
000001e0: 5a57 153e c98f a5bf 6af1 d1be 66bb a93e
000001f0: a298 2ebf db2d e3bf 037a 843f c294 5c3e
00000200: 5030 41c0 8885 a5c0 f866 673e 9a01 29be
00000210: a645 9fbf 8a3a 493f 03e7 a6c0 ee35 e6bc
00000220: 2963 593f 578d 393f ae9b 26bf 6446 bb3e
00000230: bd61 183f a9fb 5dbe 7e99 bdbf 172b 393f
00000240: 3b98 f6be 57d1 ac3e 04a0 15c0 de13 2ec0
00000250: 83f7 b53e 0016 7d3f 0087 0bbf 4edf 6fbf
00000260: 1166 e5bf 0819 83bf 8ea5 1ebf 9fc0 18c0
00000270: 08f8 26c0 332a 00c0 5fba b63f 5d95 0bc0
00000280: 50dd a1be 4043 ccbe 783d e1bf ac5b 0b3f
00000290: 0a43 873f 97aa e8be d432 debf 82d0 ddc0
000002a0: 2d0b aebe ccea b53e d108 a13f efd8 233f
000002b0: ab3e 5a3f c085 c53e b87f f1be 2719 2f3f
000002c0: 3eee 903f aa35 6b3f 72f0 dabe ee99 323f
000002d0: b2a1 0b3f 35b2 65be cf89 7cbf 7df2 94bf
000002e0: 44af 7cbf e346 5bbf a162 59be 66a0 db3e
000002f0: 8278 1f3e a463 8bbc 2cb4 303e 7a5d 04bf
00000300: 7dda 573f b614 0bbf 2057 043d 21dc 223f
00000310: ff84 acbf 4b40 8abf 3033 11bf 460f e0bf
00000320: 29a6 043f 6dc0 b8bf 9e31 e4be a956 c8bf
00000330: bd68 c9c0 8aa8 27bf 64a0 31c0 c053 34c0
00000340: 3177 25c0 31c6 8dc0 e171 8d3f ac47 243f
00000350: 438f ff3f 773a a03f 0e4e 1840 723e ce3f
00000360: 568a 603e 5634 903f c4ba a33d 39ff ffbe
00000370: c8a6 49be 4b49 bfbf 218c bc3e 6f10 a8bf
00000380: 705a cabf 14eb 333f 1584 d2be 58a4 873f
00000390: f77b 92bf 0c05 e3bf 2ffe a73d bca2 9cbf
000003a0: c659 d5bf 7857 3ac0 c4c1 e9bf 530b 1a3f
000003b0: 41aa b5bf a824 22bf a983 b6be ba5f e3bf
000003c0: 4f82 1940 d192 2040 25d7 f63f 8729 793f
000003d0: 69c9 28bf 2923 74bf 13bb f7be ff55 023f
000003e0: 3cb1 843e 0829 16bf 2f88 64c0 e332 fdbf
000003f0: 798e fe3d 69bb 4dbf 80c9 05c0 1b8b 51c0

w_layers.1.0.bias f4 [15]
-0.8921919 2.7929223 0.5308735 5.9267917 2.7182267 -1.7736083 -7.784466 -3.8374836
-5.2875304 -2.7692528 -0.1517882 -10.031167 -4.214846 -0.73129976 1.9545972
00000000: b066 64bf 3dbf 3240 53e7 073f 47a8 bd40
00000010: 6df7 2d40 9905 e3bf 581a f9c0 5599 75c0
00000020: 7333 a9c0 703b 31c0 5e6e 1bbe a97f 20c1
00000030: 05e0 86c0 7636 3bbf 3e30 fa3f

w_layers.1.3.weight f4 [15]
1.3821583 1.456815 1.3939022 1.4609519 1.8400707 1.7926103 1.8316346 2.2434428
2.0775878 1.4301999 1.9983227 -1.8792439 2.3391554 1.9079747 1.8299754
00000000: 90ea b03f ea78 ba3f 636b b23f 7900 bb3f
00000010: 7087 eb3f 4174 e53f 0173 ea3f 9194 0f40
00000020: 33f7 0440 ca10 b73f 0ac9 ff3f 108b f0bf
00000030: b9b4 1540 8438 f43f a23c ea3f

w_layers.1.3.bias f4 [15]
-0.30548495 0.58574957 0.303277 0.6846448 0.38927647 0.72443223 0.50695264 0.40351254
0.30123165 0.28252944 0.67785686 -0.69698447 0.69331974 0.7119618 0.11421136
00000000: 8668 9cbe aff3 153f 1f47 9b3e e244 2f3f
00000010: 3f4f c73e 6474 393f a6c7 013f 3299 ce3e
00000020: 093b 9a3e b3a7 903e 0788 2d3f 936d 32bf
00000030: 677d 313f 2143 363f a5e7 e93d

w_layers.1.3.running_mean f4 [15]
6.3086357 7.435363 6.40244 12.9655 11.796074 15.101411 5.125232 5.3833337
3.9365473 4.928308 15.6106205 2.2664416 5.698629 11.259326 6.790608
00000000: 58e0 c940 7eee ed40 cae0 cc40 b072 4f41
00000010: b8bc 3c41 619f 7141 e701 a440 4544 ac40
00000020: 64f0 7b40 b3b4 9d40 1ac5 7941 610d 1140
00000030: 2b5b b640 3326 3441 a94c d940

w_layers.1.3.running_var f4 [15]
142.18777 96.93157 66.48093 166.56671 203.28612 588.6238 141.93791 207.95721
202.57832 62.51091 666.1752 44.43881 253.80583 308.2826 91.58517
00000000: 1230 0e43 f7dc c142 3cf6 8442 1491 2643
00000010: 3f49 4b43 ec27 1344 1bf0 0d43 0cf5 4f43
00000020: 0d94 4a43 2c0b 7a42 368b 2644 57c1 3142
00000030: 4bce 7d43 2c24 9a43 9b2b b742

w_layers.2.0.weight f4 [20, 15, 7]
-0.08806163 -1.8148798 -0.859175 0.75515497 1.0219725 0.9082867 -1.5658672 -1.4073813
-0.5399946 0.04747422 -2.3108509 -3.3988008 -0.53888196 -1.0445732 -3.4058254 -0.576747
-2.006404 -0.9774937 -0.14752758 -0.6580751 -0.54364955 -0.83156455 0.26644495 0.041724443
-0.5736739 -1.2015355 -2.4254842 -2.8925092 -0.38216624 0.8016368 -4.601393 -0.66601247
-1.5812445 -0.30976382 1.6931038 0.4939431 -0.22079891 -0.14883757 1.899683 0.7311912
-0.4521784 -1.7747587 -0.5075117 -1.4604332 0.038229827 0.65785384 0.3659666 -0.046131656
-1.7139056 1.1611236 0.4629034 -0.13468547 -0.49215448 -0.7849695 -3.0493257 -0.66448605
0.17272119 0.41188282 -0.38279048 -3.4049466 -2.4965386 0.14931709 -2.267053 1.3174595
-2.8848913 -1.6637641 1.534391 0.04121386 0.8606924 0.98849255 0.33807108 0.7088772
-0.050183248 0.21704653 0.39196646 -2.5099137 -2.579413 3.439172 0.51617175 0.05398985
-1.2548205 0.853784 1.1492482 -0.341158 1.0360484 -0.9892235 0.60952467 0.10388022
0.39386666 2.242057 -2.0844917 -1.145745 1.8247406 0.0737482 0.20301291 0.31193694
-0.58823526 0.5436604 2.2151911 -2.5352006 -0.5769518 0.16289508 -1.0152367 -1.6079568
0.008758429 2.5808384 2.252381 2.3451881 1.142241 -0.1899645 -1.9937867 -0.24436326
1.6056434 -0.8619425 -2.2245755 -2.2625375 -0.5947682 -1.1472752 0.4683114 -1.7878965
-3.7306132 0.037416898 0.26249164 -0.38530064 1.3140522 -0.5207334 0.11496787 -0.7015904
1.3027477 -0.9800959 -1.0131158 -2.4361825 -1.4987426 -0.7284776 -1.6008594 -3.21314
-0.9096333 0.7285012 1.5419651 -0.12122286 0.438609 0.6298176 1.0403762 -0.6727664
-0.07256414 -1.2604777 1.7548416 -0.8041289 0.33305115 0.26828352 0.86667806 -0.49025673
-1.1872783 0.258821 0.1096216 -0.6749661 0.15307072 -0.5148146 0.63446105 -0.37207618
-0.54700106 0.6493755 0.7940107 0.28249094 -1.0795175 -3.8105423 -0.74778247 1.2329001
-2.7981923 -2.993153 -1.1887444 0.9594409 1.5269829 0.37197104 0.34937438 -0.008363648
0.602638 1.1058187 -0.5975107 -0.15170299 -0.61850905 1.7626619 1.728111 -0.032588817
2.166472 4.689952 1.8530583 2.4366183 -1.8471063 0.5480308 -0.17099746 0.09534343
-0.5303305 0.570244 -2.3243673 0.38891792 0.06180191 -0.0201005 -0.06881239 -1.5442573
-1.6914294 -0.8928008 0.07699566 0.57049626 -0.38027585 -0.412694 -0.49656048 1.0707004
1.3112983 -0.9925339 0.20720392 0.53011084 1.0007359 0.84657264 1.8794035 0.24834318
-0.5664821 -0.2024975 -0.20512725 -2.9023232 0.100264676 -0.91409343 -2.05226 -3.3792188
-1.8727715 -1.1142678 -1.2620564 -3.6173043 -1.737882 -2.0093288 -2.8704646 0.56599283
1.9062599 0.14079063 -0.28887647 -0.13315186 -2.431016 -1.3233435 1.3144833 -0.55878234
1.0816318 -1.8743275 0.68129057 -0.43887046 0.0032388796 -1.9721692 -0.1955728 -1.3970964
-0.050732456 0.4133182 -2.1778352 0.23813413 -3.306676 -1.1622088 0.5455756 -3.7305558
00000000: a859 b4bd fb4d e8bf e5f2 5bbf d651 413f
00000010: ffcf 823f 7a85 683f 566e c8bf 1225 b4bf
00000020: 163d 0abf 5474 423d fbe4 13c0 f485 59c0
00000030: 2bf4 09bf 93b4 85bf 0bf9 59c0 b1a5 13bf
00000040: ec68 00c0 073d 7abf 7811 17be 9c77 28bf
00000050: 9e2c 0bbf 6ae1 54bf 796b 883e 40e7 2a3d
00000060: 4bdc 12bf eacb 99bf 223b 1bc0 df1e 39c0
00000070: 4bab c3be 1238 4d3f 9d3e 93c0 cb7f 2abf
00000080: 3866 cabf 5d99 9ebe a0b7 d83f 1ce6 fc3e
00000090: 1c19 62be e068 18be d028 f33f 592f 3b3f
000000a0: ed83 e7be 4b2b e3bf 49ec 01bf 7aef babf
000000b0: e196 1c3d 1c69 283f f95f bb3e 8cf4 3cbd
000000c0: 4261 dbbf b39f 943f ad01 ed3e fdea 09be
000000d0: acfb fbbe c3f3 48bf 2728 43c0 c21b 2abf
000000e0: d3dd 303e 4ee2 d23e 1dfd c3be a5ea 59c0
000000f0: 4ac7 1fc0 94e6 183e 6517 11c0 83a2 a83f
00000100: 0fa2 38c0 39f6 d4bf ed66 c43f ddcf 283d
00000110: 5656 5c3f d90d 7d3f a717 ad3e fa78 353f
00000120: f38c 4dbd 7241 5e3e d4af c83e 6da2 20c0
00000130: 1a15 25c0 651b 5c40 d523 043f 7624 5d3d
00000140: f59d a0bf 9791 5a3f 911a 933f 43ac aebe
00000150: 3c9d 843f c03d 7dbf cf09 1c3f 27bf d43d
00000160: e4a8 c93e dd7d 0f40 5068 05c0 c6a7 92bf
00000170: 1a91 e93f 4c09 973d 9ee2 4f3e 33b6 9f3e
00000180: 9696 16bf 542d 0b3f b1c5 0d40 ba40 22c0
00000190: 1db3 13bf f8cd 263e 47f3 81bf 87d1 cdbf
000001a0: 847f 0f3c 752c 2540 0327 1040 9017 1640
000001b0: f434 923f 0e86 42be 6734 ffbf 5d3a 7abe
000001c0: b985 cd3f 44a8 5cbf 725f 0ec0 6acd 10c0
000001d0: bb42 18bf ead9 92bf 83c6 ef3e cbd9 e4bf
000001e0: 5ec2 6ec0 7642 193d 4e65 863e 2046 c5be
000001f0: dd32 a83f c94e 05bf 4674 eb3d 6e9b 33bf
00000200: 70c0 a63f 91e7 7abf c7ad 81bf 6aea 1bc0
00000210: ccd6 bfbf 827d 3abf f6e8 ccbf 16a4 4dc0
00000220: badd 68bf 0e7f 3a3f 1d5f c53f b143 f8bd
00000230: 5c91 e03e ba3b 213f 0c2b 853f 6b3a 2cbf
00000240: 829c 94bd 5557 a1bf a69e e03f 64db 4dbf
00000250: ae85 aa3e 755c 893e 9dde 5d3f ee02 fbbe
00000260: bcf8 97bf 3084 843e 4a81 e03d 94ca 2cbf
00000270: 92be 1c3e e4ca 03bf 0a6c 223f c580 bebe
00000280: 4308 0cbf 793d 263f 4944 4b3f a7a2 903e
00000290: a12d 8abf eddf 73c0 ac6e 3fbf accf 9d3f
000002a0: 9515 33c0 d28f 3fc0 c728 98bf eb9d 753f
000002b0: 2d74 c33f fd72 be3e 33e1 b23e af07 09bc
000002c0: 7c46 1a3f 788b 8d3f 76f6 18bf 0758 1bbe
000002d0: 9c56 1ebf e89e e13f be32 dd3f da7b 05bd
000002e0: 7aa7 0a40 1614 9640 0431 ed3f 8ef1 1b40
000002f0: fb6d ecbf bf4b 0c3f f519 2fbe 6b43 c33d
00000300: bdc3 07bf 83fb 113f 6fc2 14c0 4020 c73e
00000310: 0024 7d3d cea9 a4bc 83ed 8cbd 39aa c5bf
00000320: c280 d8bf 988e 64bf e7af 9d3d 0b0c 123f
00000330: 84b3 c2be a14c d3be 2d3d febe b60c 893f
00000340: 9fd8 a73f b416 7ebf 442d 543e 58b5 073f
00000350: 1d18 803f fcb8 583f 4b90 f03f ad4d 7e3e
00000360: f904 11bf 815b 4fbe e10c 52be aabf 39c0
00000370: 9157 cd3d 0702 6abf 3a58 03c0 1f45 58c0
00000380: fab6 efbf 54a0 8ebf 108b a1bf ea81 67c0
00000390: eb72 debf d898 00c0 b1b5 37c0 e8e4 103f
000003a0: 5300 f43f 6b2b 103e 9ee7 93be f658 08be
000003b0: c495 1bc0 5263 a9bf fd40 a83f 5c0c 0fbf
000003c0: e972 8a3f f7e9 efbf 0f69 2e3f a1b3 e0be
000003d0: 6243 543b 0a70 fcbf 3c44 48be 0ed4 b2bf
000003e0: d6cc 4fbd 719e d33e a761 0bc0 6fd9 733e
000003f0: 94a0 53c0 42c3 94bf d8aa 0b3f 6dc1 6ec0

w_layers.2.0.bias f4 [20]
-5.108527 -7.2745094 3.334728 -6.303505 -5.763873 -3.6788752 -1.6959593 -0.97929394
2.4166133 -2.4185178 -3.2525747 -0.5966869 0.54109514 -4.6093388 -3.1201868 1.7215554
-7.350794 -5.269541 -4.770691 2.1581922
00000000: 0e79 a3c0 c8c8 e8c0 2f6c 5540 50b6 c9c0
00000010: a671 b8c0 b172 6bc0 3215 d9bf 02b3 7abf
00000020: cba9 1a40 ffc8 1ac0 2f2a 50c0 79c0 18bf
00000030: 3685 0a3f b47f 93c0 24b1 47c0 ed5b dc3f
00000040: b439 ebc0 14a0 a8c0 80a9 98c0 d21f 0a40

w_layers.2.3.weight f4 [20]
1.7414315 1.5418243 1.561165 1.5942004 1.8627374 1.8650811 1.8816154 1.4504426
1.255787 1.8218888 1.5727044 1.5758263 1.7951264 1.5426471 1.4592706 1.4242176
1.6654792 1.5712999 1.3816093 1.3718925
00000000: 3ae7 de3f 805a c53f 41d4 c73f c20e cc3f
00000010: 2e6e ee3f faba ee3f c6d8 f03f 1aa8 b93f
00000020: a1bd a03f a733 e93f 614e c93f adb4 c93f
00000030: b4c6 e53f 7675 c53f 61c9 ba3f c34c b63f
00000040: 6c2e d53f 5b20 c93f 93d8 b03f 2c9a af3f

w_layers.2.3.bias f4 [20]
0.06291333 0.055217672 0.4346862 0.39225075 0.08585494 0.42123768 0.6613184 0.23580006
-0.22139977 0.40104964 0.13906907 -0.008319931 0.48132858 0.24484944 0.041351676 0.077692926
0.48497754 0.34289718 0.43169856 0.08615467
00000000: b4d8 803d ed2b 623d 318f de3e 17d5 c83e
00000010: b7d4 af3d 77ac d73e 2a4c 293f 9275 713e
00000020: 9fb6 62be 6156 cd3e 1f68 0e3e 5250 08bc
00000030: b370 f63e d0b9 7a3e 6060 293d 781d 9f3d
00000040: fa4e f83e 3890 af3e 9807 dd3e dc71 b03d

w_layers.2.3.running_mean f4 [20]
2.993014 3.6678555 2.6256628 5.0218625 6.560439 13.889172 18.278114 10.724888
9.259174 18.305906 7.3675375 5.009632 2.4433491 15.593045 6.189222 8.191616
2.6943386 5.4797835 16.51378 4.4057417
00000000: 8b8d 3f40 25be 6a40 dc0a 2840 19b3 a040
00000010: 1eef d140 0c3a 5e41 9439 9241 2499 2b41
00000020: 9425 1441 7f72 9241 dec2 eb40 e84e a040
00000030: d55f 1c40 1d7d 7941 1b0e c640 dc10 0341
00000040: 0b70 2c40 635a af40 391c 8441 d6fb 8c40

w_layers.2.3.running_var f4 [20]
77.66504 119.70678 80.69729 289.80414 216.10474 837.52814 776.61945 326.1414
272.99323 1072.5385 303.85364 143.13469 68.47632 693.6832 158.57494 228.55524
94.1749 147.474 824.9075 116.13821
00000000: 8054 9b42 df69 ef42 0365 a142 eee6 9043
00000010: d01a 5843 cd61 5144 a527 4244 1912 a343
00000020: 227f 8843 3b11 8644 44ed 9743 7b22 0f43
00000030: e0f3 8842 ba6b 2d44 2f93 1e43 248e 6443
00000040: 8c59 bc42 5879 1343 143a 4e44 c346 e842

w_layers.3.0.weight f4 [25, 20, 5]
-2.7006023 0.18999182 -0.39631227 4.016755 0.2881712 -0.6458276 -2.2040582 -1.7484068
2.9581163 -0.36294177 0.467909 -0.7806205 -0.58836347 0.9569436 0.88590103 0.43816388
0.036639653 0.070196405 0.2403687 -1.2705427 -0.06017237 -0.52214545 0.8043802 0.15371715
-0.7796639 1.2735494 0.2906658 1.3205221 -0.15977147 1.0453284 -0.3818505 -0.94957817
0.32881737 0.9383063 -2.34011 -0.6464008 -1.2287531 1.1476101 1.314699 0.36078456
0.1652699 1.4360648 -1.3496997 1.0115813 1.8231833 0.72633106 -0.0925341 -0.66513294
0.2663317 -2.8867896 -1.1828865 -0.68081903 -0.91365284 2.0526984 1.8616762 0.108457096
0.93140596 -0.92533016 -1.8396409 2.2275758 0.59811425 -3.721642 -0.56041414 -0.6875281
2.090897 1.5598966 0.0033238803 -1.3986003 -0.94234145 0.74375623 1.919929 -0.854489
0.09866101 0.77885187 0.6035978 -0.65348953 1.4328412 0.70359296 -2.4673676 1.0909529
2.3973272 0.57669646 0.83774257 0.89799833 0.30266613 0.6876389 3.2348413 1.9811126
-0.3813459 -1.1088722 -0.39548695 -0.1124699 1.3942039 1.1646615 -1.9404505 -0.5240638
-1.9840513 2.3394468 -0.28813368 -0.3707578 -1.0970827 0.43740165 1.0015906 0.3582263
2.0697763 -1.5983063 2.3355496 -0.464755 0.38891494 0.85741186 -2.9288104 0.9268096
1.1198702 -0.5531434 -1.7895337 1.3977252 -0.045285758 0.9309491 0.6520453 1.6905142
-0.4786722 -0.108979896 0.8294389 -2.501175 3.002275 0.6701729 0.07907006 -1.3168627
-0.9728332 0.54056853 -0.29529983 1.4355 0.29791677 1.0076225 1.0466607 1.5118935
-0.33487704 -0.90688014 -0.25235283 1.1027682 -1.2896609 0.28366435 0.4521702 1.3738327
1.7409639 0.7238394 1.0055691 0.31600443 -0.85385835 0.24022365 -1.3223145 -0.86562884
-1.4309578 1.1887438 -2.939303 0.72623974 -0.43132564 1.3458107 0.24480473 -1.1108694
-3.3493438 1.4725509 0.10920802 -0.5593734 0.8618529 0.11300341 -0.5335153 1.0051869
0.05997875 -2.5314262 -4.143068 0.64151484 1.555912 -0.07519448 0.27338398 -2.7714162
-2.207529 0.56770533 -0.037715986 1.3235148 0.25309184 1.3569437 -2.1406188 -1.0011232
-3.4762359 -0.62707365 0.19981329 -2.966515 -2.1881976 -3.0613935 -0.70468926 -0.36107963
-0.37918326 -1.4238952 -0.51266074 -3.825383 -1.7693212 -1.222834 -2.7798324 -3.1682281
2.599692 1.1657213 1.0360231 1.9591691 1.315717 0.2826854 0.81927 0.6593051
0.36913508 1.3411688 -1.1342472 -1.9478792 -0.9910625 -1.8858705 -2.994774 0.74006116
0.25025976 0.6013345 1.6414 1.3599691 -1.1175888 -0.17431857 -1.8633134 -0.28176126
1.2643301 -1.566831 -0.50112295 -1.735293 0.59223837 1.3580375 3.5407057 -0.3013423
-1.0480816 -0.07718248 0.6836464 -0.5796281 1.2175387 -2.5632422 -5.442318 -2.5508258
1.8198078 -1.3543586 -0.35506043 1.1241702 1.4111577 1.2154425 0.33948836 -1.96442
-0.5667552 -1.4404644 0.66429216 1.2005932 0.5993226 0.07487684 -1.4636236 -2.8421187
00000000: abd6 2cc0 378d 423e 71e9 cabe 4289 8040
00000010: 2d8b 933e f554 25bf 4a0f 0dc0 cbcb dfbf
00000020: c751 3d40 81d3 b9be c591 ef3e bfd6 47bf
00000030: fd9e 16bf 41fa 743f 69ca 623f 0457 e03e
00000040: 7613 163d 22c3 8f3d 3623 763e 25a1 a2bf
00000050: 4e77 76bd 53ab 05bf dceb 4d3f 0768 1d3e
00000060: 0e98 47bf ab03 a33f 26d2 943e de06 a93f
00000070: 229b 23be 52cd 853f e981 c3be 8e17 73bf
00000080: c05a a83e d734 703f 5dc4 15c0 867a 25bf
00000090: c847 9dbf e3e4 923f 0f48 a83f c1b8 b83e
000000a0: 833c 293e f9d0 b73f f6c2 acbf 7f7b 813f
000000b0: 125e e93f d5f0 393f 8582 bdbd 2746 2abf
000000c0: a15c 883e 29c1 38c0 d368 97bf 284a 2ebf
000000d0: 27e5 69bf 695f 0340 684b ee3f c11e de3d
000000e0: 9f70 6e3f 70e2 6cbf 5a79 ebbf 9a90 0e40
000000f0: 041e 193f 622f 6ec0 4d77 0fbf d701 30bf
00000100: 42d1 0540 b1aa c73f 75d5 593b 5605 b3bf
00000110: 4a3d 71bf cf66 3e3f 3cc0 f53f cbbf 5abf
00000120: c90e ca3d d662 473f 6385 1a3f 174b 27bf
00000130: 5767 b73f ab1e 343f 5ae9 1dc0 58a4 8b3f
00000140: cf6d 1940 61a2 133f 4c76 563f 38e3 653f
00000150: 0ef7 9a3e 1a09 303f a407 4f40 1995 fd3f
00000160: c53f c3be 86ef 8dbf 447d cabe 9e56 e6bd
00000170: 4675 b23f a113 953f af60 f8bf 0c29 06bf
00000180: 65f5 fdbf 7fb9 1540 4286 93be f7d3 bdbe
00000190: 356d 8cbf 1cf3 df3e 1f34 803f 7069 b73e
000001a0: 3777 0440 4d95 ccbf a579 1540 5ef4 edbe
000001b0: dc1f c73e 587f 5b3f a171 3bc0 6543 6d3f
000001c0: e857 8f3f ce9a 0dbf 710f e5bf a9e8 b23f
000001d0: 8f7d 39bd ae52 6e3f 71ec 263f c562 d83f
000001e0: 8614 f5be da30 dfbd 1c56 543f 4013 20c0
000001f0: 4625 4040 7490 2b3f 7cef a13d f58e a8bf
00000200: 990b 79bf b362 0a3f 8a31 97be 77be b73f
00000210: 8c88 983e c6f9 803f faf8 853f ba85 c13f
00000220: 0175 abbe 4c29 68bf 6434 81be 8227 8d3f
00000230: 9c13 a5bf 743c 913e da82 e73e c0d9 af3f
00000240: e8d7 de3f 8a4d 393f 7db6 803f 55cb a13e
00000250: 7696 5abf 30fd 753e 9a41 a9bf da99 5dbf
00000260: a029 b7bf c228 983f 8a1d 3cc0 d9ea 393f
00000270: b7d6 dcbe 8643 ac3f 17ae 7a3e f830 8ebf
00000280: a65b 56c0 8c7c bc3f 74a8 df3d 1833 0fbf
00000290: 64a2 5c3f 556e e73d 7594 08bf f7a9 803f
000002a0: 47ac 753d e302 22c0 0394 84c0 513a 243f
000002b0: 2028 c73f 90ff 99bd fcf8 8b3e e25e 31c0
000002c0: 2848 0dc0 2355 113f 147c 1abd ef68 a93f
000002d0: 4195 813e 55b0 ad3f e6ff 08c0 ce24 80bf
000002e0: a67a 5ec0 e687 20bf db9b 4c3e 62db 3dc0
000002f0: 6e0b 0cc0 dfed 43c0 8466 34bf 6edf b8be
00000300: 4f24 c2be 3342 b6bf bc3d 03bf 13d3 74c0
00000310: 1e79 e2bf d385 9cbf c6e8 31c0 40c4 4ac0
00000320: 5b61 2640 5b36 953f 689c 843f 0ec6 fa3f
00000330: 6a69 a83f 24bc 903e aebb 513f 38c8 283f
00000340: 46ff bc3e 6bab ab3f 032f 91bf 1b54 f9bf
00000350: 46b6 7dbf 3464 f1bf 61aa 3fc0 a674 3d3f
00000360: 0c22 803e 0ff1 193f 6519 d23f 7813 ae3f
00000370: 260d 8fbf 9180 32be 0e81 eebf 0343 90be
00000380: 92d5 a13f eb8d c8bf 9849 00bf 151e debf
00000390: ef9c 173f 2cd4 ad3f ec9a 6240 8a49 9abe
000003a0: 8a27 86bf d911 9ebd 7303 2f3f 8262 14bf
000003b0: 4fd8 9b3f 290c 24c0 7827 aec0 bb40 23c0
000003c0: 76ef e83f 9f5b adbf 7bca b5be cfe4 8f3f
000003d0: d1a0 b43f 9f93 9b3f 6bd1 ad3e 1d72 fbbf
000003e0: de16 11bf 2361 b8bf 0d0f 2a3f 0aad 993f
000003f0: 356d 193f 0759 993d 0558 bbbf 46e5 35c0

w_layers.3.0.bias f4 [25]
-5.1503186 -1.233405 -5.1181307 -1.2816472 -6.6271443 -6.6204515 -8.235218 -1.8783821
3.8678663 -1.4625624 -2.1858397 -8.238071 -0.25145 -7.790054 -0.4173488 -4.7587934
-2.1371257 -4.8296456 -7.3246737 2.6829138 -1.7203147 -5.135168 -5.720833 2.9497337
-6.4961905
00000000: 69cf a4c0 37e0 9dbf bac7 a3c0 040d a4bf
00000010: 9111 d4c0 bdda d3c0 74c3 03c1 d36e f0bf
00000020: 1f8b 7740 3f35 bbbf cce4 0bc0 24cf 03c1
00000030: 0ebe 80be 1f48 f9c0 beae d5be 0948 98c0
00000040: abc6 08c0 758c 9ac0 ba63 eac0 dcb4 2b40
00000050: 4633 dcbf 4c53 a4c0 1011 b7c0 70c8 3c40
00000060: cbe0 cfc0

w_layers.3.3.weight f4 [25]
1.379658 1.3539989 1.3054618 1.2919632 1.674304 1.5270674 1.6492761 1.4350307
1.4448144 1.4347239 1.5755628 1.6550756 1.4141825 1.5749388 1.2184366 1.4330163
1.656891 1.7718127 1.0127987 1.5350409 1.5480286 1.4121377 1.8557565 1.1921928
1.5302063
00000000: a298 b03f d64f ad3f 5f19 a73f 0d5f a53f
00000010: 984f d63f f276 c33f 7b1b d33f 16af b73f
00000020: aeef b83f 08a5 b73f 0bac c93f 84d9 d33f
00000030: ef03 b53f 9897 c93f bbf5 9b3f 146d b73f
00000040: 0115 d43f c2ca e23f 63a3 813f 387c c43f
00000050: cd25 c63f eec0 b43f 6e89 ed3f c699 983f
00000060: cddd c33f

w_layers.3.3.bias f4 [25]
0.3225225 0.22952384 0.15914725 0.43171677 0.6103476 0.3745522 0.33763787 0.39881042
0.67254066 0.44587198 0.5098379 0.6092164 0.3673089 0.6785522 0.06879945 0.50627834
0.5082874 0.23131408 0.05862452 0.1195175 0.43419507 0.41692698 0.6760853 0.23676361
0.66659117
00000000: ab21 a53e 4c08 6b3e 7ff7 223e fb09 dd3e
00000010: be3f 1c3f 4ec5 bf3e dfde ac3e e130 cc3e
00000020: a02b 2c3f 5549 e43e bd84 023f 9bf5 1b3f
00000030: ea0f bc3e 99b5 2d3f bae6 8c3d 759b 013f
00000040: 1f1f 023f 99dd 6c3e 4420 703d 97c5 f43d
00000050: d14e de3e 7477 d53e ed13 2d3f 2972 723e
00000060: b8a5 2a3f

w_layers.3.3.running_mean f4 [25]
6.5505524 6.4729805 3.8082747 6.878455 4.743289 4.407255 2.837926 7.085299
11.825586 5.7659106 10.7917 6.039236 9.773575 2.7742343 5.9644303 4.625463
4.623261 3.703201 9.430799 8.228302 10.258508 2.4591484 6.8879013 6.3154807
3.9375648
00000000: 209e d140 a822 cf40 c6ba 7340 4e1c dc40
00000010: 06c9 9740 3c08 8d40 94a0 3540 c5ba e240
00000020: 9a35 3d41 5782 b840 ceaa 2c41 6c41 c140
00000030: 9060 1c41 0e8d 3140 9ddc be40 cb03 9440
00000040: c1f1 9340 3f01 6d40 8de4 1641 20a7 0341
00000050: d922 2441 b062 1d40 b069 dc40 6b18 ca40
00000060: 1001 7c40

w_layers.3.3.running_var f4 [25]
146.95401 130.92256 99.772575 116.12076 134.73872 77.017296 78.97158 158.8555
208.48962 138.8038 387.05737 152.37311 261.7707 57.290688 128.05104 107.78528
86.29766 68.13685 317.3888 162.52693 220.31938 63.609447 207.79268 106.76487
95.95586
00000000: 3af4 1243 2dec 0243 8f8b c742 d43d e842
00000010: 1dbd 0643 db08 9a42 73f1 9d42 02db 1e43
00000020: 587d 5043 c6cd 0a43 5887 c143 845f 1843
00000030: a6e2 8243 aa29 6542 110d 0043 1092 d742
00000040: 6798 ac42 1146 8842 c4b1 9e43 e586 2243
00000050: c351 5c43 1370 7e42 edca 4f43 9d87 d542
00000060: 66e9 bf42

w_layers.4.0.weight f4 [100, 25, 3]
-2.4010086 2.4056003 -0.20181261 0.41246715 -2.6129684 0.9062705 1.5514013 0.22097892
0.74745774 -1.6272829 -3.6710033 2.7042232 -0.32678542 0.019041436 -0.0013116994 -0.5008329
0.15982883 0.15154178 -0.13363902 -0.609256 -0.12097758 -0.7768735 -2.1196933 1.0141169
0.8521151 -0.23474516 -6.49722 -1.4447216 -3.7700443 1.2595778 -0.009099169 -0.12308496
-1.9903631 1.7007276 -1.5033352 -0.29686874 -0.64028627 0.5939676 1.7526793 -0.1824092
-1.2953706 -1.8806107 0.8106123 -0.9040483 1.3922094 -1.9278742 -0.3404393 -0.034997493
-2.7651467 -0.8749053 2.2230728 0.030929375 1.8866074 -0.21449026 0.72556424 -0.3783003
0.50244975 -0.23003888 -0.27450854 1.8166051 -1.7460048 -1.4373122 -0.85531044 0.6435143
-1.1302731 0.2893803 -1.5547919 -0.42990786 -0.5586478 -1.6821572 -1.3153297 1.680049
1.2126521 -0.8246426 1.150461 -0.9048472 1.0723569 0.49621236 0.43196782 -0.20656998
2.2004073 -0.019196322 -0.03513308 0.90705806 -0.16109638 -1.0396143 -0.073810235 -1.9706064
0.48203772 1.3267952 -1.9798694 1.9070182 -1.3773607 -0.63643306 -0.6664343 0.46483278
-3.4200304 -0.23743011 -1.3756994 -0.5394987 -1.7435566 -2.6213186 -2.7910953 1.2156643
-1.3434596 -1.6544487 1.0038414 -1.4951917 0.15771137 -0.18223988 0.08796271 -2.175111
0.8333079 1.6119616 0.41520196 -3.2849813 0.8972721 1.386521 0.70160383 -0.48665482
-2.4121177 -1.8618433 -0.8669189 -0.24564497 0.39410642 -0.9298953 0.08803841 0.52283144
-0.7258337 -0.34038597 0.13777348 -3.0365014 -2.415643 -3.177701 2.199109 -3.150073
-2.3301094 -0.4439732 -0.5977548 1.5258446 -3.1186736 -0.20841694 0.043358743 -0.20841284
-2.504762 0.4355175 1.3141294 -0.16122192 0.8027047 -1.8252372 0.11470598 0.6756264
-2.6542487 -0.17652306 -0.79197586 -0.13923989 -2.5107906 -0.12770335 -0.05409222 0.5221956
0.025289379 0.20857595 -0.059702795 -0.11230913 -3.7466016 -1.4066207 0.713643 -1.3669982
-0.83747166 2.7140727 0.39488554 -0.431906 -5.1698203 2.0418096 0.01784924 -1.1090685
-0.65536565 -0.29415658 0.6803466 0.06420183 0.41874614 -3.0005531 -0.21767177 0.13552248
-0.40481067 -0.083284006 -1.4619434 1.1889899 1.7096057 0.0565424 -2.349192 -3.6946092
-3.6213183 2.50023 -1.0651696 -3.03124 -0.28799063 -0.14991678 -0.48817864 -2.162445
0.17975605 -1.6289475 0.8412416 1.4575186 -1.2287004 -3.3457527 1.9401901 0.009372149
-0.94188184 -0.010220181 0.7261617 0.98022276 0.3923152 -0.27126464 -0.6837717 -0.96205825
0.61209995 0.5676633 -1.0398233 -0.5973476 2.0620701 -0.788897 -1.474764 0.43111145
1.1770461 -0.19776316 -0.18833543 -1.5753927 -0.068381496 0.27187714 1.2908918 -0.5225147
-0.6209716 -1.1741854 1.2736907 -1.040965 1.4920398 -3.3084323 -3.1910737 -1.2208704
-1.5034263 1.96115 0.15047865 -1.5560784 -1.5427852 1.5833832 -1.3503287 0.72626185
0.0016115801 1.0232271 -1.8216313 -0.54406416 1.116423 0.24730973 -0.6977228 -1.022359
00000000: 20aa 19c0 5bf5 1940 f7a7 4ebe e52e d33e
00000010: e03a 27c0 5801 683f 5194 c63f 4c48 623e
00000020: 6459 3f3f ce4a d0bf b8f1 6ac0 fe11 2d40
00000030: 6b50 a7be c9fc 9b3c 54ed abba 9636 00bf
00000040: 2baa 233e c52d 1b3e abd8 08be 34f8 1bbf
00000050: 18c3 f7bd 2fe1 46bf 0ea9 07c0 95ce 813f
00000060: 3724 5a3f 0961 70be 3ae9 cfc0 a3ec b8bf
00000070: 6848 71c0 d839 a13f ae14 15bc f813 fcbd
00000080: 38c4 febf 71b1 d93f 4a6d c0bf 2eff 97be
00000090: cde9 23bf 430e 183f cc57 e03f 7ac9 3abe
000000a0: b4ce a5bf dab7 f0bf 4a84 4f3f b66f 67bf
000000b0: eb33 b23f 95c4 f6bf 0f4e aebe 8859 0fbd
000000c0: 2af8 30c0 cbf9 5fbf d346 0e40 9a5f fd3c
000000d0: 5a7c f13f 56a3 5bbe 94be 393f 94b0 c1be
000000e0: 8ca0 003f 508f 6bbe 628c 8cbe 8486 e83f
000000f0: 167d dfbf d9f9 b7bf a0f5 5abf 5abd 243f
00000100: caac 90bf a829 943e 6c03 c7bf e21c dcbe
00000110: 8b03 0fbf ed50 d7bf b95c a8bf d80b d73f
00000120: 2f38 9b3f c71b 53bf 4e42 933f 11a4 67bf
00000130: fe42 893f 8c0f fe3e e32a dd3e 1587 53be
00000140: 79d3 0c40 9b41 9dbc b4e7 0fbd f534 683f
00000150: 73f6 24be 1512 85bf d229 97bd d53c fcbf
00000160: a6cd f63e 6dd4 a93f 5c6c fdbf 2c19 f43f
00000170: 5b4d b0bf 47ed 22bf 709b 2abf 90fe ed3e
00000180: c7e1 5ac0 e120 73be eb16 b0bf 961c 0abf
00000190: dd2c dfbf afc3 27c0 4ea1 32c0 e39a 9b3f
000001a0: 7cf6 abbf fac4 d3bf e07d 803f 7162 bfbf
000001b0: 177f 213e 179d 3abe cb25 b43d 0535 0bc0
000001c0: ab53 553f c254 ce3f 5a95 d43e 223d 52c0
000001d0: a0b3 653f 8579 b13f 4f9c 333f d22a f9be
000001e0: 2360 1ac0 e250 eebf 66ee 5dbf 5b8a 7bbe
000001f0: 51c8 c93e 9e0d 6ebf 7b4d b43d 48d8 053f
00000200: 3dd0 39bf 1247 aebe 7e14 0d3e 0a56 42c0
00000210: e599 1ac0 745f 4bc0 34be 0c40 cc9a 49c0
00000220: 8320 15c0 7550 e3be 7506 19bf e04e c33f
00000230: 5998 47c0 406b 55be f098 313d 2d6a 55be
00000240: 054e 20c0 26fc de3e 6435 a83f 5c17 25be
00000250: 0e7e 4d3f 5fa1 e9bf f8ea ea3d daf5 2c3f
00000260: 36df 29c0 76c2 34be eebe 4abf e794 0ebe
00000270: cbb0 20c0 abc4 02be ce8f 5dbd 9cae 053f
00000280: ac2b cf3c ef94 553e eb8a 74bd 5402 e6bd
00000290: 52c8 6fc0 260c b4bf 4fb1 363f ccf9 aebf
000002a0: 8b64 56bf 5eb3 2d40 702e ca3e c922 ddbe
000002b0: 2b6f a5c0 02ad 0240 9238 923c f5f5 8dbf
000002c0: 0bc6 27bf b19b 96be 322b 2e3f 407c 833d
000002d0: e565 d63e 1009 40c0 59e5 5ebe 68c6 0a3e
000002e0: 5843 cfbe ce90 aabd f620 bbbf d230 983f
000002f0: 5cd4 da3f 0199 673d 2959 16c0 7a74 6cc0
00000300: aec3 67c0 c503 2040 7a57 88bf d6ff 41c0
00000310: 8273 93be c983 19be 8df2 f9be 8065 0ac0
00000320: f811 383e 5a81 d0bf 9c5b 573f f88f ba3f
00000330: 0e46 9dbf d020 56c0 2658 f83f a48d 193c
00000340: 2b1f 71bf 8c72 27bc bce5 393f e1ef 7a3f
00000350: 8add c83e 33e3 8abe aa0b 2fbf 7349 76bf
00000360: 95b2 1c3f 6252 113f ee18 85bf c6eb 18bf
00000370: f5f8 0340 27f5 49bf 11c5 bcbf a4ba dc3e
00000380: 72a9 963f 6d82 4abe 01db 40be 78a6 c9bf
00000390: 990b 8cbd 7b33 8b3e f13b a53f 86c3 05bf
000003a0: fff7 1ebf b54b 96bf 4c08 a33f 573e 85bf
000003b0: 29fb be3f 5bbd 53c0 8d3a 4cc0 7b45 9cbf
000003c0: 4670 c0bf f706 fb3f 1317 1a3e 942d c7bf
000003d0: fc79 c5bf 4dac ca3f 92d7 acbf 4cec 393f
000003e0: a83b d33a 1bf9 823f 372b e9bf ca47 0bbf
000003f0: f3e6 8e3f c33e 7d3e f69d 32bf a9dc 82bf

w_layers.4.0.bias f4 [100]
-1.9699807 -2.4376183 -3.1546872 0.24948005 -3.2320774 -2.393949 -1.128172 1.265775
-0.80933326 -0.97587824 -3.3849347 -3.678809 -2.237765 -1.5221587 -4.7833815 -4.0907316
-3.8961687 0.66817886 -4.3966637 -4.7098956 -4.3455977 -4.347417 -0.12244203 -1.2033883
-6.2888546 0.41371727 -4.0754027 2.918325 -5.1004777 -4.251096 -2.8174198 -3.5618777
-1.7677466 -5.0919466 -5.128407 -2.4672773 -4.2907095 -4.7767863 -4.3001547 -1.7575866
-6.499854 -4.2769194 1.3204007 -3.3253212 -5.295187 -4.4772506 -1.3903722 -3.2031994
-7.0439343 -4.709503 -0.8563809 -3.419756 -2.5229409 1.5746238 -2.954987 -5.4316773
-6.41168 -0.76739377 -5.4570947 -3.0620716 -5.901548 -1.140366 -2.888325 -4.308946
-7.2813573 -0.6704397 -1.9218905 -4.0218797 1.0899403 3.1806617 -3.5539167 -4.245318
-0.2831346 -2.945684 -4.1036134 -1.4087502 -2.0323408 -3.3204637 -2.109605 -5.364908
-5.3058 0.104623266 -6.0660954 -3.9562235 0.009016258 1.5000548 -1.4518305 -0.5230466
-2.836024 -0.0325676 -6.3885508 -2.6432927 -4.0938087 -1.5486885 -4.7927094 -0.61976033
-5.4809513 0.26161095 -2.130991 0.23363875
00000000: 5428 fcbf f001 1cc0 65e6 49c0 b377 7f3e
00000010: 5bda 4ec0 7636 19c0 f167 90bf ea04 a23f
00000020: 7730 4fbf 28d3 79bf c5a2 58c0 9b71 6bc0
00000030: 8b37 0fc0 19d6 c2bf 7611 99c0 46e7 82c0
00000040: d45a 79c0 c50d 2b3f 78b1 8cc0 77b7 96c0
00000050: 230f 8bc0 0a1e 8bc0 e3c2 fabd a108 9abf
00000060: 4c3e c9c0 c0d2 d33e b369 82c0 d6c5 3a40
00000070: 1d37 a3c0 fa08 88c0 9b50 34c0 cef5 63c0
00000080: 8545 e2bf 3af1 a2c0 e91b a4c0 dfe7 1dc0
00000090: 7e4d 89c0 6fdb 98c0 de9a 89c0 99f8 e0bf
000000a0: cefe cfc0 86dc 88c0 e402 a93f 10d2 54c0
000000b0: 2c72 a9c0 a345 8fc0 b7f7 b1bf 3801 4dc0
000000c0: e967 e1c0 40b4 96c0 c73b 5bbf 48dd 5ac0
000000d0: dd77 21c0 468d c93f 821e 3dc0 4dd0 adc0
000000e0: 7c2c cdc0 eb73 44bf 85a0 aec0 fbf8 43c0
000000f0: 7bd9 bcc0 83f7 91bf 51da 38c0 e3e2 89c0
00000100: e100 e9c0 f0a1 2bbf 8200 f6bf 3db3 80c0
00000110: 2a83 8b3f f68f 4b40 5f73 63c0 a5d9 87c0
00000120: 05f7 90be 1686 3cc0 cd50 83c0 ed51 b4bf
00000130: df11 02c0 7a82 54c0 c503 07c0 54ad abc0
00000140: 1dc9 a9c0 b944 d63d 741d c2c0 c432 7dc0
00000150: edb8 133c cc01 c03f 95d5 b9bf 62e6 05bf
00000160: 6b81 35c0 9b65 05bd 026f ccc0 b52b 29c0
00000170: 7b00 83c0 6d3b c6bf e05d 99c0 9da8 1ebf
00000180: f463 afc0 dff1 853e 2862 08c0 ff3e 6f3e

w_layers.4.3.weight f4 [100]
0.31151608 0.28915077 0.44803062 0.48622087 0.6650679 0.41163707 0.46834823 0.47340077
0.5208558 0.41960773 0.6920568 0.40862817 -0.48282146 0.5081747 0.37324646 0.44073847
0.5096362 0.32463366 0.7169473 0.24611832 0.39385557 -0.45149034 0.31811002 0.50241905
0.5839108 0.44124883 0.68357927 0.35335866 0.6812359 0.25133955 0.32365793 0.47425583
0.37502125 0.5822158 0.6810378 0.5904955 -0.63140523 0.5754175 0.70332885 0.5476549
0.29033715 0.68392503 -0.67017233 0.40036437 0.4796993 0.4400132 0.36183408 0.43603048
-0.5358438 0.5348068 0.41278425 0.7998263 0.48191246 0.5026803 0.45243362 0.86513835
0.62712944 0.5040259 0.6488618 0.50411534 0.49368444 0.26431957 0.6090141 0.5860619
0.6636215 0.456681 0.35991943 0.46729144 0.49090695 0.33655003 0.6959538 -0.25209007
0.8060866 0.31853175 0.54763615 0.661336 0.7862794 0.6296787 0.6497038 0.4826057
0.50545514 0.39863935 0.44112724 0.59096587 0.5637536 0.52422595 0.3615624 0.38805816
0.5319258 0.36386594 0.6360438 0.41242284 -0.6161231 0.678979 0.5039371 0.4318817
0.6847274 0.45656115 0.48259193 0.5898872
00000000: 097f 9f3e 920b 943e 4564 e53e f1f1 f83e
00000010: e441 2a3f 18c2 d23e 57cb ef3e 9661 f23e
00000020: ce56 053f d3d6 d63e a22a 313f b637 d13e
00000030: 6034 f7be bd17 023f 291a bf3e 79a8 e13e
00000040: 8577 023f 6236 a63e dc89 373f 7106 7c3e
00000050: 70a7 c93e be29 e7be 51df a23e 899e 003f
00000060: 2e7b 153f 5eeb e13e 0dff 2e3f 6deb b43e
00000070: 7a65 2e3f 94af 803e 7eb6 a53e a9d1 f23e
00000080: c902 c03e 180c 153f 7e58 2e3f b72a 173f
00000090: c6a3 21bf 904e 133f 5c0d 343f 1d33 0c3f
000000a0: 12a7 943e b615 2f3f 6a90 2bbf 8ffc cc3e
000000b0: 269b f53e 6949 e13e 5142 b93e 633f df3e
000000c0: 0f2d 09bf 19e9 083f 7558 d33e 6bc1 4c3f
000000d0: 3bbd f63e a8af 003f 61a5 e73e b579 5d3f
000000e0: 8e8b 203f d707 013f cf1b 263f b40d 013f
000000f0: 35c4 fc3e e554 873e 59e8 1b3f 2708 163f
00000100: 19e3 293f 18d2 e93e 5c47 b83e d340 ef3e
00000110: 2858 fb3e 4950 ac3e 072a 323f f311 81be
00000120: b15b 4e3f 9816 a33e e231 0c3f 514d 293f
00000130: 9b49 493f a032 213f fd52 263f 1818 f73e
00000140: 8265 013f 751a cc3e 6edb e13e 8a49 173f
00000150: 2852 103f ac33 063f b51e b93e 8faf c63e
00000160: 4a2c 083f a34c ba3e c4d3 223f 1629 d33e
00000170: 3eba 1dbf 91d1 2d3f 0602 013f 991f dd3e
00000180: 4b4a 2f3f 62c2 e93e 4a16 f73e d902 173f

w_layers.4.3.bias f4 [100]
0.09265037 -0.009855235 -0.06302126 -0.089817144 0.039191335 0.021401372 -0.055858403 0.14596958
0.09548363 -0.05318184 -0.024098473 0.0695772 -0.18080309 0.0030812044 -0.25647315 0.044124346
0.07885998 -0.04599143 0.23767063 0.007723312 0.11196917 -0.32303846 -0.067576215 0.099307775
0.13297923 -0.009403756 -0.061050385 0.028701348 0.1763572 -0.18933898 0.14790004 -0.0047248546
-0.008752317 0.2908243 0.089310095 -0.06114134 -0.19991983 0.06353595 0.16982503 -0.011317775
0.08162342 0.027375953 -0.1234351 0.022011276 0.1342415 -0.10097579 0.002569832 -0.06739788
0.1644698 -0.08774836 0.023748768 0.029188339 0.24020596 0.097178236 -0.15970272 0.2632349
0.060989644 -0.1893352 -0.010148592 -0.0035542534 0.10606193 -0.23296897 0.041280746 -0.06226791
0.037933357 -0.023978036 0.025092749 -0.021420544 -0.10327626 0.11070349 0.15636429 -0.3790541
0.073489465 0.27791446 0.059281893 0.015624944 0.059982594 0.09316651 -0.084706 0.08168737
-0.015384971 0.037860487 0.027437367 0.0907025 0.10771625 -0.039474614 -0.066725835 0.5574385
0.39073554 0.07203594 0.06913054 -0.11320339 0.051930383 0.0775679 0.07157105 0.045493618
0.16064794 -0.017562777 0.0036137304 0.05259921
00000000: 7abf bd3d da77 21bc 4a11 81bd 0df2 b7bd
00000010: 1887 203d ee51 af3c c8cb 64bd 0d79 153e
00000020: ec8c c33d 33d5 59bd 296a c5bc 7e7e 8e3d
00000030: 7224 39be 08ee 493b 7350 83be bbbb 343d
00000040: 5781 a13d 8261 3cbd ee5f 733e d613 fd3b
00000050: 1850 e53d 4c65 a5be 6665 8abd e061 cb3d
00000060: b52b 083e 3612 1abc f80f 7abd 171f eb3c
00000070: fb96 343e 14e2 41be 1c73 173e f4d2 9abb
00000080: e165 0fbc ece6 943e 36e8 b63d 576f 7abd
00000090: c9b7 4cbe 231f 823d 9de6 2d3e 306e 39bc
000000a0: 2e2a a73d 8943 e03c 8bcb fcbd fe50 b43c
000000b0: 9b76 093e 65cc cebd a06a 283b e607 8abd
000000c0: c56a 283e 6ab5 b3bd c78c c23c 621c ef3c
000000d0: 8df8 753e 6205 c73d 1c89 23be bac6 863e
000000e0: 47d0 793d 16e1 41be 4846 26bc 7aee 68bb
000000f0: ff36 d93d 6b8f 6ebe 0016 293d a30c 7fbd
00000100: 0260 1b3d 966d c4bc 4f8f cd3c 237a afbc
00000110: 8182 d3bd 83b8 e23d f61d 203e 6113 c2be
00000120: a581 963d ce4a 8e3e 92d1 723d c4ff 7f3c
00000130: 4fb0 753d 15ce be3d 577a adbd b54b a73d
00000140: 3f11 7cbc 9913 1b3d 54c4 e03c 3bc2 b93d
00000150: 569a dc3d 22b0 21bd 8ea7 88bd 4ab4 0e3f
00000160: 7d0e c83e 9487 933d 5094 8d3d 2ed7 e7bd
00000170: f4b4 543d ebdb 9e3d d893 923d 8457 3a3d
00000180: e580 243e d0df 8fbc 56d4 6c3b 4572 573d

w_layers.4.3.running_mean f4 [100]
1.4238291 0.57342124 0.7113189 1.9632335 1.1082692 0.3820355 1.8968554 1.8748671
2.1518345 0.31064135 1.3432459 2.349152 4.5420938 1.193538 0.5312089 1.7602174
0.7921612 2.8325436 0.69632876 0.33519834 0.26154828 0.9836842 5.992114 1.6496377
3.6602097 2.92982 0.4650072 3.0476756 1.073872 0.49831623 0.45006835 0.08906224
0.1430861 1.8505034 0.9060772 1.134355 0.7353075 2.380752 2.7158933 1.3624488
1.4988708 1.0770298 2.559188 2.8707755 0.729083 2.418979 1.3908895 0.78927237
1.3102715 1.1086994 2.2502968 0.37806144 1.6551691 1.5044208 0.069938615 0.53577316
0.6786566 1.97979 0.22536084 1.9586077 0.34478223 3.6839485 0.61428213 4.1659565
0.97581977 1.4888225 1.7254968 1.8227252 2.4378545 2.4957345 1.0404284 0.47003934
1.8781233 1.4305418 0.09797578 0.8145223 1.1281745 0.5365227 1.6179203 0.10883914
0.03953273 0.8633053 0.34782252 0.5821317 1.1966163 2.0540178 1.1689554 8.752378
4.5388603 2.9308045 0.56504774 1.7298563 6.8918977 0.9721296 1.6820891 2.2879722
1.3161962 2.5978653 0.7120305 3.709874
00000000: 0840 b63f bccb 123f ff18 363f 3c4b fb3f
00000010: c4db 8d3f 289a c33e 28cc f23f a5fb ef3f
00000020: a8b7 0940 620c 9f3e 7bef ab3f 8258 1640
00000030: d558 9140 dac5 983f 4efd 073f ce4e e13f
00000040: 14cb 4a3f 6548 3540 9a42 323f 1e9f ab3e
00000050: a8e9 853e bad2 7b3f 66bf bf40 5427 d33f
00000060: e040 6a40 2c82 3b40 6c15 ee3e 1e0d 4340
00000070: a374 893f 4e23 ff3e 5c6f e63e 4466 b63d
00000080: 2a85 123e 4cdd ec3f adf4 673f 8b32 913f
00000090: 1d3d 3c3f 3e5e 1840 32d1 2d40 b964 ae3f
000000a0: 00db bf3f 1ddc 893f bcc9 2340 c9ba 3740
000000b0: 2fa5 3a3f 8dd0 1a40 ab08 b23f c10d 4a3f
000000c0: fab6 a73f dde9 8d3f dd04 1040 4591 c13e
000000d0: 95dc d33f dc90 c03f fa3b 8f3d 6e28 093f
000000e0: 70bc 2d3f c269 fd3f fec4 663e a8b3 fa3f
000000f0: 4c87 b03e d0c5 6b40 9841 1d3f 844f 8540
00000100: 53cf 793f bc91 be3f 14dd dc3f 0f4f e93f
00000110: cf05 1c40 1dba 1f40 c22c 853f ffa8 f03e
00000120: 5866 f03f fe1b b73f 87a7 c83d 8984 503f
00000130: 0668 903f 8d59 093f 0318 cf3f 0ee7 de3d
00000140: 12ed 213d 9301 5d3f cb15 b23e 9506 153f
00000150: b92a 993f 0775 0340 55a0 953f be09 0c41
00000160: 583e 9140 4d92 3b40 f8a6 103f ee6b dd3f
00000170: 6d8a dc40 7cdd 783f b24e d73f 236e 1240
00000180: 1e79 a83f 6d43 2640 a147 363f 936e 6d40

w_layers.4.3.running_var f4 [100]
24.694622 9.957121 13.162351 21.192198 28.702785 8.504649 20.099566 23.485117
31.782244 4.546465 17.754307 33.271763 53.318962 18.511713 8.145151 22.787333
15.263571 24.890425 14.239717 6.620932 7.8945837 13.7002325 88.937454 20.221134
87.855 34.793102 13.385739 30.630222 20.380606 7.7622547 9.698616 3.973816
3.79556 55.597523 14.387742 17.030153 17.307238 34.50749 59.000145 20.460552
30.37501 21.0887 34.597538 40.579395 9.443077 37.6374 18.206509 10.597255
18.228868 21.12868 35.744118 11.934953 22.801447 16.859945 3.2949917 16.52197
14.671309 24.726585 8.830074 28.186203 9.586261 65.92432 17.534931 85.07764
21.170475 20.845213 21.858187 30.026178 23.357603 36.226353 17.907583 12.819747
36.802105 28.36481 5.3264227 17.920847 20.713861 18.45982 20.934954 5.7393813
2.3366218 9.351734 7.9095936 8.286101 16.963354 21.63242 13.961899 97.28098
76.481415 34.7844 12.830112 26.057709 112.94186 13.465023 33.95881 29.909254
43.20487 22.449905 18.21928 47.382683
00000000: 968e c541 5e50 1f41 fd98 5241 9f89 a941
00000010: 4e9f e541 0b13 0841 e9cb a041 85e1 bb41
00000020: 0942 fe41 a47c 9140 d208 8e41 4916 0542
00000030: 9e46 5542 fd17 9441 8a52 0241 754c b641
00000040: 9637 7441 971f c741 e1d5 6341 adde d340
00000050: 6ea0 fc40 2734 5b41 fadf b142 e2c4 a141
00000060: c3b5 af42 232c 0b42 fd2b 5641 b20a f541
00000070: 7b0b a341 6464 f840 882d 1b41 0053 7e40
00000080: 74ea 7240 dd63 5e42 3134 6641 c13d 8841
00000090: 3975 8a41 ab07 0a42 2600 6c42 36af a341
000000a0: 0500 f341 a8b5 a841 e163 0a42 4d51 2242
000000b0: d816 1741 b38c 1642 eea6 9141 5b8e 2941
000000c0: b9d4 9141 8907 a941 faf9 0e42 91f5 3e41
000000d0: 5d69 b641 2be1 8641 25e1 5240 ff2c 8441
000000e0: afbd 6a41 0cd0 c541 fc47 0d41 587d e141
000000f0: 5361 1941 40d9 8342 8a47 8c41 c027 aa42
00000100: 225d a941 ffc2 a641 91dd ae41 9d35 f041
00000110: 5fdc ba41 c9e7 1042 bb42 8f41 af1d 4d41
00000120: 5b35 1342 22eb e241 0e72 aa40 e55d 8f41
00000130: fdb5 a541 b6ad 9341 c97a a741 03a9 b740
00000140: 368b 1540 b4a0 1541 641b fd40 df93 0441
00000150: f3b4 8741 320f ad41 f063 5f41 dd8f c242
00000160: 7cf6 9842 3a23 0b42 2448 4d41 3076 d041
00000170: 3be2 e142 bc70 5741 d2d5 0742 2746 ef41
00000180: c9d1 2c42 6899 b341 16c1 9141 de87 3d42
